training/best_debugging/model_20230711_131506_3/model.pt (torch, 180527 bytes, 10 tensors)

conv1.weight f4 [6, 1, 5, 5]
00000000: 4d04 4d3e c25c 883e 725a 573c 7e41 263e
00000010: 9987 58be bc6e 513e a07c 853c 9b4c 733e
00000020: 90d7 783e 7722 47be c11c 823e cc0d 063e
00000030: da5e 283e ca1c 27bd fcea 3f3d 4cf5 54bd
00000040: 410c 113e 48fa 53bd 56ac 72be 1bdb 08bd
00000050: cff1 51be 0b43 03be 1e89 59be c7b9 79bd
00000060: 37d0 7dbe f14b 95bc 33ea 023d 1d92 43bd
00000070: ad1f 6bbd a254 f9be 839c 533e 4604 22be
00000080: 8a1d 673e 423e e4bc 9df3 c5be c777 c33d
00000090: 7c7a c73d f8e2 b93e f648 183e 63ae 7dbe
000000a0: b257 fc3a 5d31 96bc 844c 583e 5abc 833e
000000b0: 3d23 bfbd 699d 2ebe 637c 463e 1864 163e
000000c0: 27ec 273e 2f30 afbe bb65 71be 499b 23be
000000d0: 833f 6dbe abc5 0f3e d8d4 173e b6cf 0f3e
000000e0: da6e 083e 9c29 c3ba 302f f93d d231 c3bd
000000f0: 0b45 2f3e 8126 013d a7a4 e53d 4b50 1bbe
00000100: 4a17 83bd 9f0f 063e c700 a93e ef57 abbd
00000110: 6b08 83be 762d b8be 81ea 833e a6eb d93d
00000120: 8037 1f3e 278e b2be d301 efbe fd1e c0be
00000130: cba4 97be e4e3 6e3e 637d 743e badd 643e
00000140: 59b5 bfbe e7dd 75be e0df b23e 0f68 a33c
00000150: 143d 733e 9a48 2bbe 78bd 0d3e 0b8b b63d
00000160: ea0b 39bd 0337 393c ec0b b4bd a9b3 9cbc
00000170: c859 c13e 3a70 053e c405 c0be 1a87 40be
00000180: 748d af3e b6be 313e b169 2dbd e6a5 b9be
00000190: 5ce8 1fbe 33ac b8bd 0799 2ebe f5c3 3cbe
000001a0: d697 85bc 7673 14be 2707 80be 213c 96be
000001b0: aa28 abbe 8dce 1cbe 6266 403e 4e4c ccba
000001c0: a90f 29bd 7325 a2be 3766 42be 7dd5 b1bc
000001d0: fbd1 e03c 087e 2dbe df85 f7bd 8653 17be
000001e0: 51f0 8e3c 761e b4bd 11f3 bdbd e541 33be
000001f0: 07ee 2fbe 3b9c 5fbe b12d 6cbe 976d ccbe
00000200: ed47 c8bc 5fde c3bd 6f09 eb3d 545a a5bd
00000210: d1ed a5be e879 1d3b 805a 80bd f303 66bd
00000220: 9ca7 08be e83f bebd 5200 9a3d c574 b3bc
00000230: 0e16 fa3d b0ce f0bd 96eb a03e 0a07 b6bd
00000240: 5936 c73c 4fff 673d c363 153e 5947 9f3e
00000250: 940f 133e 6a9f e2bd
0.20021172 0.2663327 0.013144122 0.16235921 -0.21145476 0.20452398 0.016294777 0.23759691
0.2430098 -0.19446741 0.25412562 0.130912 0.16442433 -0.04079894 0.046854958 -0.051991746
0.1416483 -0.05175236 -0.23698553 -0.03341208 -0.20502399 -0.12818544 -0.21243712 -0.060968187
-0.24786459 -0.018224688 0.03196163 -0.047746766 -0.057403255 -0.48697382 0.20665173 -0.15821943
0.22569862 -0.027861718 -0.38662425 0.0954433 0.09740159 0.36305976 0.14871582 -0.24773555
0.001925221 -0.018334085 0.21122938 0.25729638 -0.09332893 -0.17052235 0.19383387 0.1468662
0.16398679 -0.3421645 -0.23573963 -0.15977205 -0.23168759 0.14040248 0.14827287 0.14044079
0.13323537 -0.001488972 0.121672034 -0.09530987 0.17116182 0.03153086 0.112130456 -0.15167348
-0.064009264 0.13091896 0.33008406 -0.083663814 -0.2559236 -0.35972184 0.2576485 0.106406495
0.15548515 -0.3487408 -0.4668108 -0.37523642 -0.29617915 0.23329121 0.23875956 0.22350207
-0.37443045 -0.2401043 0.34936428 0.01994708 0.23753768 -0.16726914 0.13841808 0.08913239
-0.045177378 0.01130462 -0.087913364 -0.019128637 0.3776381 0.13031092 -0.375044 -0.18801537
0.34287608 0.17357907 -0.042337123 -0.36259383 -0.15615982 -0.090172194 -0.17050563 -0.18434127
-0.016307753 -0.1449717 -0.25005457 -0.2934275 -0.33429462 -0.15313168 0.18789056 -0.0015586705
-0.0412747 -0.31669196 -0.18984304 -0.021708244 0.027443876 -0.16942608 -0.12086081 -0.14777955
0.017448576 -0.087948725 -0.09274877 -0.17505606 -0.17180644 -0.21836941 -0.23064305 -0.3992736
-0.02444836 -0.09563898 0.11476409 -0.08073869 -0.32408002 0.002402896 -0.062672615 -0.05615611
-0.13345188 -0.09289533 0.07519592 -0.021906266 0.12211238 -0.117581725 0.31429738 -0.08888061
0.024317907 0.056639966 0.14588837 0.3110912 0.14361411 -0.11065562

conv1.bias f4 [6]
00000000: a9cc e83d d7a3 52bc c9f1 653d 9a92 66bb
00000010: 1835 1bbe e1d1 9dbe
0.11367161 -0.012856445 0.056138787 -0.0035182596 -0.15156972 -0.30824187

conv2.weight f4 [16, 6, 5, 5]
00000000: edc6 7f3e f042 a43e 6657 c53d 0211 4bbe
00000010: 49ce d0bd 265b 113e 8792 293e bf5a 81bd
00000020: 7263 143c 9ee6 5d3d 2f78 9bbc 46fb a53d
00000030: f44b d6bc 04f3 8abe 4264 69be 125a 703c
00000040: abad 273d dae6 c4bd 4afa 17be f687 57bd
00000050: d3a1 31bd 2058 973d dc10 393d e54e 81bd
00000060: ae98 a83d 353d 9e3b 5b5b c23e 3f03 723e
00000070: 20a8 923e c886 213e 82ac f23c 2326 a8bd
00000080: 7ea0 2dbe ff41 80bd 698a 8abd 840e 223d
00000090: d5f7 e23c 5a55 163d 5c1f 17bd 784a a93b
000000a0: e02f 49bd 6b7f b2bd 1cd2 93bd f234 a3bb
000000b0: 5998 5cbd 46db c2bd e2bd 21bc 4815 d5bc
000000c0: 1404 65bd 53cd a4bd 2ec0 363d 5257 87bd
000000d0: 8488 dabd c271 d43b 210a 273e 91cf 573d
000000e0: 0be8 5c3c c5f8 b2bd 3b61 4fbd 7050 1c3e
000000f0: cce3 5dbd 387b 32bd 92cf 85bd b963 fcbd
00000100: e1dd 8cbd 457d 72bd d783 e9bd 87a0 02be
00000110: 7632 2cbe a929 853d 5dcb 09be c0eb fcbb
00000120: 2d0b 22be 3930 07be 0887 c3bd af62 9f3e
00000130: 5b4e 383d 2b90 663e dc53 bd3d f02b 0e3e
00000140: 5784 70bd 3a87 063d d405 5abd 36a2 babd
00000150: fef9 29be b168 9cbd afcd 16be a118 83be
00000160: f1d4 edbd 18db 803d 475b 30be 7e40 6bbe
00000170: 9126 bebe 60d9 8ebd 6660 34bd 7303 1cbe
00000180: 8d8f 2dbe 3a1c b7be 7a3f b3bd 0b73 f1bd
00000190: f836 063d 1985 90bc ac37 da3d 81aa 483e
000001a0: e5e1 3a3e cb82 cfbd d035 6e3d f6d8 b7bc
000001b0: 6d38 e03c 5dc6 153e 6cbb 29bd e8d4 5d3c
000001c0: 6dbc 1ebb 4629 23bd 4fe6 c83d 9461 12be
000001d0: db9b 3a3d a609 3c3d 4f82 3a3d a675 a13b
000001e0: 968e 03be 2066 99bc b6f2 be3c fe06 f5bd
000001f0: c2be a2bb 2445 19be 0043 363c 2b7a b43d
00000200: 3536 223e d3b1 4b3e 368c 12be df35 e33c
00000210: 4894 7c3d cdbe fbbc a9e5 dc3d 8498 85bc
00000220: 66b7 2dbd c375 9cbc a581 413e 1985 b03d
00000230: 5c78 e5bd dff9 5fbd b8ad 58bd 59a3 da3c
00000240: 223a 503d 5483 fcba b1f8 d73b e6b8 ddbc
00000250: c6fd 36bd 5441 443d 9662 0bbd 5194 233b
00000260: 6e1e debd 4f05 97bd 405d 803b 3d1b 3c3d
00000270: a788 29bd dbed acbc 26ca 71bd bfcd c0bd
00000280: f178 943c 04b9 493d b879 45bd fda5 83bd
00000290: d974 18be 1f3a 23bd 0724 b7bb ab4e 98bc
000002a0: f088 d5bd 464d d0bd 3836 08be 79bd 27be
000002b0: 0140 f3bd ea9e 39bd 12dd 5a3d b82d e93b
000002c0: 2be7 27bd 905f 79bd f979 983d e9a5 0cbe
000002d0: ad0d 083e 739c 773e e44d 103d 6105 f43d
000002e0: cf02 833d c5e1 c73d e200 45bd 6bc1 07be
000002f0: b35c b1bc 12b8 37bc 8ff5 683e ab47 12bd
00000300: 80f6 03be a369 963c aea4 2c3d b86c 563e
00000310: 24ce e73c cc8d 753b 2834 fabd 92f7 e2bc
00000320: 1218 c13d be71 453d 3d51 243d d64b 3e3e
00000330: 48f9 963d f8fb 98bd 5a1b d0bd 3be6 da3c
00000340: 6a55 ad3d 841d cc3d c9ab 1b3d 80b1 8bbd
00000350: fe7c 00be e27b a83c 7aa1 c73d 3b55 ee3d
00000360: ef99 a8bd 2cfe 81bc 21b6 93bd 40f4 2bbd
00000370: 44f2 0d3e bf2a 863d ae63 683d 69bc 64bd
00000380: 4bde a23d 2883 d8bc 9328 733d 5e3c 0a3e
00000390: 4541 063e 5a22 a83d b9da 36bc 567c 00bc
000003a0: 1ac2 e93d ffe8 333e 81d1 b1bb bb2b 563d
000003b0: 6268 133e 7bb3 6a3d 8878 933d 9367 5dbe
000003c0: ba81 f3bb a442 033d 1a5b 1f3d 6a72 93bd
000003d0: 1a32 3fbe 846f 3c3e 1b46 b6bc c703 ac3d
000003e0: 1a2f 2fbd 9b09 92be 7b60 30be c33e afbd
000003f0: cdd3 20bd c3eb 133d b513 f83c 5cd8 c7bd
0.24978228 0.3208232 0.096358106 -0.19830707 -0.10195596 0.14194927 0.16559802 -0.063161366
0.009056913 0.05417501 -0.018978206 0.08104567 -0.026159264 -0.2713853 -0.22792152 0.014669912
0.040937107 -0.09614344 -0.14841571 -0.052619897 -0.04336722 0.073898554 0.045182094 -0.06313876
0.08232246 0.004829074 0.37960324 0.23634051 0.28643894 0.15774071 0.029623274 -0.08210399
-0.16955754 -0.06262588 -0.06764681 0.039564624 0.027706066 0.03670249 -0.03689514 0.005166348
-0.049117923 -0.08715709 -0.072178096 -0.004980677 -0.053856228 -0.09514479 -0.009871932 -0.026011124
-0.055912092 -0.08046975 0.04461687 -0.06608452 -0.106705695 0.0064832876 0.16312458 0.052688185
0.013483058 -0.08738855 -0.050629836 0.1526506 -0.054172322 -0.04357454 -0.065337315 -0.12323708
-0.068782575 -0.059201498 -0.114020996 -0.12756549 -0.16816124 0.06502087 -0.13456483 -0.0077185333
-0.15824576 -0.13201989 -0.095472395 0.31129977 0.0449966 0.22515933 0.092445105 0.13883948
-0.05871996 0.032843806 -0.053228214 -0.091129705 -0.1659927 -0.07637156 -0.147269 -0.25604728
-0.11612881 0.06291789 -0.1722232 -0.2297382 -0.371388 -0.06975055 -0.044037245 -0.15235691
-0.16949292 -0.35763723 -0.087523416 -0.11789521 0.032767266 -0.01764159 0.1065515 0.19596292
0.18250234 -0.10132369 0.05815679 -0.022442322 0.027370656 0.14626451 -0.041438505 0.01353953
-0.0024221197 -0.039834283 0.09809553 -0.14295036 0.04555879 0.04590764 0.04553443 0.004927355
-0.12847361 -0.018725455 0.023309093 -0.11964224 -0.0049665878 -0.14967781 0.0111243725 0.08812364
0.15840991 0.19892053 -0.14311299 0.027735649 0.06166485 -0.03073063 0.10785992 -0.016308077
-0.04241123 -0.019099122 0.18897112 0.08619136 -0.11204597 -0.054681655 -0.052900046 0.026689218
0.05083669 -0.0019265213 0.0065909256 -0.027065706 -0.04467561 0.047913864 -0.034029566 0.002496023
-0.10845648 -0.073740594 0.0039173663 0.045924414 -0.041390087 -0.021109512 -0.059030674 -0.09414243
0.018124076 0.04924871 -0.048211783 -0.06428144 -0.14888324 -0.03985035 -0.0055890116 -0.0185922
-0.104265094 -0.10170989 -0.13301933 -0.16380872 -0.11877442 -0.045317568 0.053433485 0.007116046
-0.040991943 -0.06088215 0.074451394 -0.13735165 0.13286467 0.24180774 0.035230532 0.119150884
0.0639702 0.09759859 -0.048096545 -0.13257377 -0.021650648 -0.011213319 0.22749923 -0.03571288
-0.12887001 0.018360918 0.04214924 0.2093991 0.028296538 0.003746855 -0.12216979 -0.027705941
0.09428419 0.048204176 0.040116537 0.18583617 0.073717654 -0.07469934 -0.10161467 0.02672111
0.08463557 0.09966567 0.038005624 -0.06820965 -0.1254768 0.020566884 0.09747596 0.1163735
-0.082324855 -0.015868269 -0.07212473 -0.04198098 0.13861948 0.06551122 0.056735687 -0.055843744
0.07952555 -0.026429728 0.059364866 0.13499591 0.13110836 0.08209677 -0.011160546 -0.007842144
0.11413975 0.1756935 -0.005426586 0.0522878 0.14395288 0.057300072 0.07200724 -0.21621542
-0.007431236 0.032045975 0.03890524 -0.07199557 -0.18671456 0.18401915 -0.022250226 0.08399158
-0.04276953 -0.28522953 -0.17224304 -0.08556893 -0.03926449 0.03611351 0.030282835 -0.09758064

conv2.bias f4 [16]
00000000: f084 8e3d bc6c 7a3d 493b 963d c3d7 d2bd
00000010: 15b3 a5bd 3d74 b13d 4481 a9bd 1ac8 28bd
00000020: 7f65 06be 8676 3d3e 8094 93bc 1a65 0a3e
00000030: 5ef5 cabd ee3a 673d a343 733d d49c b1bd
0.069589496 0.061138853 0.073355265 -0.102950595 -0.08090798 0.08664749 -0.082766086 -0.041206457
-0.13124655 0.18502244 -0.018015146 0.1351513 -0.09910081 0.056452684 0.059390675 -0.08672491

fc1.weight f4 [120, 256]
00000000: 0e43 5a3d 8ff2 203e da86 68bd 1417 a23c
00000010: d657 163d ec7a 053d 36d2 95bc 59da 6a3b
00000020: 1fff f0bb d3b0 b83d beb3 173e 1eff e8bc
00000030: 8bff acbd 0465 fd3c 7fe4 5c3d ec46 a13b
00000040: 3bf6 883d ebd7 c8bd cc6d a2bc bd01 a13d
00000050: c5b8 893d 32ce 7f3d a8b6 e73c 9226 8e3a
00000060: 9b35 863d e5e1 9c3d ab9d 743d d377 91bc
00000070: 354c d43c 99a4 98bc 606e 0abd 9b8c 0f3d
00000080: 647e 84bb 226a 223d 5039 dbbd 6cb9 1ebc
00000090: 9923 d33c 91eb 84bc 1493 85bb e685 0ebd
000000a0: 0219 4d3d afab 0bbd 410c f9bc 1a48 d23a
000000b0: 6173 fa3d 4ae8 ca3d bb02 a2bc d398 50be
000000c0: 74b1 abbc f85b 0fbe a8b7 15bd 99d1 913d
000000d0: 8513 5abd 3094 80bc 9de7 50bd ba33 893d
000000e0: 1d2e 96bb b228 e3bd fb24 5a3b 4293 d03c
000000f0: cdf0 1b3d e52d 8cbd dc47 bfbd 67c5 f63c
00000100: 1f83 4e3c 296a 8bbc 6cee 123c 0139 943d
00000110: b90e 8dbd d679 77bd 42bc 483d d67f 0a3d
00000120: 8811 6ebd 4466 f6bc 5f19 11bd 6674 5ebb
00000130: 6309 d43c 0d57 67bd 839c 4fbd 9e3e 8d3d
00000140: 742c 0c3e 430c 1e3d bf33 b1bd 860b 40bd
00000150: fce3 923d 3c67 343d 2b2f a3ba eed5 bcbc
00000160: 3a5a 09bd 6421 55bc ed84 0fbd 3c24 40bd
00000170: 3bed 87bd 0f5c bcbd d2c6 9cbd 46a2 573d
00000180: f016 a8bc 3d7e 8bbc e4e8 76bc 0887 9c3d
00000190: d82f 9dbd 11bc 49bd 393f 7cbd 1b5f 30ba
000001a0: 7530 b1bc ec0a 87bd 8b20 403d 118a 86bd
000001b0: 2e44 e63d 0698 31bb a47c 66bb a87c 123d
000001c0: 41e7 103d ae7e 6b3d 7de5 f8bd 0ad9 503c
000001d0: c333 1ebd 5bea 9fbc 8ebd 8e3c 148f a43d
000001e0: 74e2 47bc b369 8fbd fe76 293c 9055 743c
000001f0: 2bcb bbbb b895 f0bd 70a3 c33c f70a b13d
00000200: 3eda 5d3d 9dce c8bd cafe acba 35e2 023e
00000210: 874b 88bd d202 81bd cacc 6c3c 6798 333d
00000220: 60ab 30bd f4ba d2bd 5d9c 3bbd f015 1ebb
00000230: 0b4d a4bd 7162 3f3c 035a f73b 1119 cb3c
00000240: 0476 333e 70a0 e53d 70c1 453c 9894 5abb
00000250: 7265 543d 4e7f f13d 43ae 163c 8988 87bd
00000260: 3838 953d 1ea0 c53c ef7d b1bb 6281 eebd
00000270: c819 153e 442b b43d 17be 8abc 35d4 b6bd
00000280: 99d5 92bc ebcb cc3d 79eb c1bd ef0a 93bc
00000290: 4b81 bd3d 997c 743d 1c92 a9bc dd8d 32bd
000002a0: dd10 373d 5f68 42bd e67f 55bd c560 523c
000002b0: 3b4c c33d 1036 ec3c 4873 15be 589d a03d
000002c0: de43 3b3d ce84 ec3d fa92 84bc 423f 8bbc
000002d0: 6fec 30ba 5ebb 84bd aa7b efbc b327 12bd
000002e0: 1191 753d 6132 c2bd 94cb 3bbc 94c1 0c3d
000002f0: 42f9 553e 4a73 8bbc 87b8 a9bd 9224 223e
00000300: bb05 3cbc bfe8 0dbe a2de a9bd a29d 2abd
00000310: 3811 90bd 09a0 04be bca7 b8bd 2ff5 72bd
00000320: ca0b 50bd f68c 03be 6ebc 7a3c b91a efbc
00000330: 1c7b ee3c 214e 913b 2be8 cebd 8297 5ebe
00000340: 43be 493d 7cf9 70bc 8da5 20bd a4cb 92bc
00000350: 877e bebc 6bda 943c 411c 74bd 8205 7c3d
00000360: 2cf8 42be 11d4 1cbb a71b b4bc bc38 0dbd
00000370: eaa7 77be cf77 8bbc 53aa 083e 079f f83c
00000380: f6fa b2bc 560a 793d 8c65 943b 5419 e23d
00000390: 58be af3c 2bfc b13d b821 583d b6ce 20bc
000003a0: 3727 cabc 4669 713c 9591 373d 9eac 71ba
000003b0: a7f6 1a3d 0e01 a13c 01f8 aeba 3240 11bd
000003c0: c8cd 97bd 1137 8a3c f705 03bd 5c33 dfbc
000003d0: 5598 32bc 22ba 3ebd ebe7 60bd 6325 b23c
000003e0: fdc8 403b a90e 93bd 5c40 f33c 1f72 063d
000003f0: 0a2a 813c 93df 5c3c 5937 df3c a555 f8bc
0.053286605 0.15717529 -0.05676923 0.019786395 0.03670486 0.03258793 -0.018288713 0.0035835712
-0.0073546316 0.090181015 0.1481466 -0.028441962 -0.084471785 0.030931957 0.05392885 0.0049217846
0.0668759 -0.09806808 -0.019827746 0.0786166 0.06724695 0.062452503 0.02828534 0.0010845235
0.06553193 0.076602735 0.059720676 -0.017757332 0.025915245 -0.018633174 -0.033796668 0.0350462
-0.0040433872 0.039651997 -0.10704291 -0.009687763 0.02577381 -0.016225608 -0.004076371 -0.034795664
0.050072677 -0.034099277 -0.03040135 0.0016043216 0.12229038 0.09907587 -0.019776693 -0.20370798
-0.02095864 -0.13999927 -0.0365521 0.07120056 -0.05324127 -0.015695661 -0.051002134 0.06699319
-0.004583134 -0.110917464 0.0033286202 0.025460843 0.038071442 -0.06844691 -0.09339878 0.030123426
0.012604504 -0.017018395 0.008967977 0.07237435 -0.06887574 -0.060418926 0.04900766 0.03381332
-0.058122188 -0.03007806 -0.035424586 -0.003394389 0.025883382 -0.056479502 -0.05068637 0.06896709
0.13688833 0.038585912 -0.08652448 -0.04688599 0.07172391 0.044043764 -0.001244997 -0.023051228
-0.033533312 -0.013008449 -0.035038877 -0.046909556 -0.06637045 -0.09197246 -0.076551095 0.05264499
-0.02051875 -0.017027969 -0.015070174 0.07642943 -0.07675141 -0.04925162 -0.06158373 -0.0006728039
-0.021629551 -0.0659388 0.046906035 -0.06569303 0.11243473 -0.002709867 -0.0035169506 0.035763413
0.03537679 0.057493858 -0.121531464 0.012747059 -0.038623583 -0.01952093 0.017424371 0.080351025
-0.012199987 -0.070025824 0.010343311 0.014912978 -0.0057310066 -0.117473066 0.023881644 0.086446695
0.05416321 -0.09805033 -0.0013198492 0.12781604 -0.06655031 -0.06299366 0.014453122 0.043846514
-0.043132186 -0.10289565 -0.045803417 -0.0024121962 -0.08022507 0.011681185 0.007548572 0.024792226
0.17525488 0.11212242 0.012070045 -0.003335273 0.05185456 0.117918596 0.009196821 -0.06617839
0.072861135 0.024124201 -0.005416624 -0.116457716 0.14560616 0.08797315 -0.016936345 -0.08927194
-0.017924117 0.09999832 -0.09468741 -0.01794955 0.09253176 0.059689138 -0.020699553 -0.043592323
0.044693816 -0.047462817 -0.052123927 0.0128404545 0.09536024 0.028834373 -0.14594758 0.07842511
0.04571902 0.11548768 -0.016183365 -0.016997937 -0.00067490985 -0.0648105 -0.029233772 -0.03568239
0.0599528 -0.09482265 -0.011462111 0.034364298 0.20895866 -0.017022748 -0.08287149 0.15834263
-0.011475976 -0.13858317 -0.08294417 -0.041654237 -0.07034534 -0.12951674 -0.09016368 -0.059315857
-0.050792493 -0.12846741 0.015303714 -0.029187547 0.029111437 0.0044343625 -0.10102876 -0.21737483
0.049253713 -0.014707919 -0.03922038 -0.017919369 -0.023253692 0.018170556 -0.059597258 0.06152869
-0.19039983 -0.0023930112 -0.021985842 -0.034477934 -0.24185148 -0.017024903 0.13346224 0.030349268
-0.021848183 0.060800873 0.004528707 0.11039987 0.021453068 0.08690675 0.05276653 -0.009814909
-0.024676902 0.014734572 0.044816572 -0.00092191424 0.037832882 0.019653823 -0.0013349057 -0.035461612
-0.074122965 0.01687196 -0.03198811 -0.02724617 -0.010900577 -0.04656423 -0.054908674 0.021746343
0.0029416673 -0.071805306 0.029693775 0.032823678 0.015767116 0.013481039 0.027248072 -0.030314276

fc1.bias f4 [120]
00000000: 20e9 2f3d 5bc2 813d f387 f93d 7467 103d
00000010: 75ce af3d 7c0e c03d c3a8 82bd 59a2 55bd
00000020: 1a2d 4f3d 8360 0b3e 51e1 0abc f572 b03d
00000030: d5e8 973c 68db d6bc e9e5 133e 2d38 813d
00000040: 2143 a7bd eff8 c33d 6efc d63d 1b37 48bc
00000050: 4d82 993c 631a d93b c4ab d63c d961 f13c
00000060: dcd2 9b3c caf0 56bc 4d12 b0bd 58eb 753d
00000070: 35e1 5dbd da8e b03d 4a64 20bd 5198 1f3d
00000080: 7cc6 d33c fd81 9f3d 19f4 f4bb d927 8b3d
00000090: 3675 a33d db03 b83d 2222 6ebd b4ae 80bd
000000a0: 7c9b 483d 08d3 6abd 8a61 8e3c 2bd5 d63c
000000b0: 2332 913d fb9e ac3d 4bd7 69bc a813 53bd
000000c0: 003c 08bc d787 4bbd 0ae0 04bc 9158 fa3c
000000d0: b42e 66ba 498b 7dbd 5c61 913c d137 553d
000000e0: 3166 2b3d f47d 86bd 5d13 76bc 0d2a 11bd
000000f0: 2d2b a23c f45a c73d a9dc dfbc b0e2 1fb9
00000100: 2b67 773b 0d5d 1c3e dc14 abbd c871 37bd
00000110: 8ddc 67bd 9f96 83bd 7665 0f3d ff2d 77bd
00000120: 0d10 4c3c 33da 58bc ed7c fa3c eacf 513d
00000130: 6f86 c83b 32de 02bd 24b9 ff3c 65ae 783d
00000140: e597 53bd 14bb 703c 0d5a 7b3d 8783 04bd
00000150: c9f7 4e3c 1a2b 7fbc 4a52 923d d7ba 83bd
00000160: 1527 003c 1347 233d 1142 e0bd 54cf 23bd
00000170: c463 a23c b3fc b33b 3300 1a3c 8938 33bc
00000180: 8dc5 24bd 964a a0bd e4bf c43d 5644 97bc
00000190: ff71 bc3d ae52 0f3d d150 5ebd 6669 eabb
000001a0: 60fc 63ba 2aaf ce3d e423 903d aa60 d5bb
000001b0: 23b7 623d db33 993d 6ba1 5cbd 3a7f f73d
000001c0: a3d6 79bd 160c 233c 9ded 633d 76b2 f1bc
000001d0: 410b 933c 5017 993d 9d39 653d 887f d7bc
0.042946935 0.063358985 0.121841334 0.03525491 0.085843004 0.09377763 -0.06379845 -0.05215678
0.05058012 0.13611035 -0.008476571 0.08615676 0.01854364 -0.026227668 0.14443173 0.06309543
-0.08167101 0.09568965 0.10497366 -0.012220169 0.01873889 0.00662546 0.026204951 0.029465603
0.019021444 -0.013118932 -0.085972406 0.060038894 -0.054169852 0.08620997 -0.039158143 0.03896362
0.02585148 0.07788465 -0.007475388 0.0679471 0.079813406 0.0898511 -0.05813802 -0.06283322
0.048976406 -0.05733016 0.017380495 0.026224693 0.07089641 0.084287606 -0.014272521 -0.051532418
-0.008315086 -0.049690094 -0.008110056 0.03055981 -0.0008780763 -0.06190041 0.01774662 0.052055184
0.041845504 -0.065669924 -0.015019265 -0.035440493 0.019795978 0.09734145 -0.027326899 -0.0001524787
0.0037750702 0.15269871 -0.08353588 -0.044786245 -0.056606818 -0.06425213 0.03500887 -0.0603466
0.012454999 -0.0132356165 0.030577147 0.051223673 0.0061195414 -0.031950183 0.031216212 0.06071319
-0.05165853 0.01469304 0.061365176 -0.032351997 0.012632319 -0.015574241 0.07144602 -0.06432121
0.007821818 0.039862704 -0.10950101 -0.039992645 0.019822963 0.0054927706 0.009399462 -0.010938772
-0.04022746 -0.07826726 0.09606913 -0.018465202 0.092014305 0.03499096 -0.05427629 -0.0071536778
-0.00086969696 0.10092004 0.070380956 -0.0065117674 0.055350434 0.07480594 -0.053864878 0.120848134
-0.06099571 0.009951612 0.055646528 -0.029504042 0.017949702 0.0747515 0.055963147 -0.026305929

fc2.weight f4 [84, 120]
00000000: f0ca e73d a00b 7b3d 0ce7 1ebd 0150 383d
00000010: a4bf b2b7 0a9a 803c bdbc b0bd f874 d6bd
00000020: 819d 6f3d 819f 0c3e ac85 54bd 59e7 b4bd
00000030: 43b7 18bc b675 a9bd abb5 2cbd 91ef c63d
00000040: cb5c dd3c 3fc5 d2bd de39 bdbd b113 083c
00000050: 356e 81bd 48cc a0bd 2660 82bc bd01 d8bc
00000060: a81e 8bbd a989 35bd 1104 f43d 5352 6b3d
00000070: 481d 9639 69d7 55bd 2c35 5f3d ac0f 983a
00000080: 7752 f03d 9c3c 19bd 4a1b 8a3b 1737 b43d
00000090: e7f1 8cbc 558f 803d 227c 1c3d a877 1e3d
000000a0: 9976 3c3c b6a6 53bd 39e6 75bd 178f be3d
000000b0: 0e8f 2bbd 8df6 b2bd 0493 95bc b73d 3f3c
000000c0: 01f8 0ebe f677 2f3d 05b4 99bb ee38 aa3b
000000d0: aa5d e0bc 0197 e33d b3ca c03c 64fd f73d
000000e0: b492 e63d bfd0 983d 8c1f 683d 6e25 8c3d
000000f0: ccfe 29bd d9c6 10be 6659 a33b 3f82 67bd
00000100: afb1 54bc af15 1dbd 8924 28bd 60c4 af3d
00000110: 0d7f f8bc 67de 883d 1bc4 b33d ab80 3c3d
00000120: f6c5 90bd 9bed 093e b383 a53d 0dbb 37bd
00000130: 988e bc3d 19aa c93d 0368 23be 4108 8dbd
00000140: bc98 613d 5e02 d03d 3fc9 343c b543 1d3e
00000150: 52ac 503d ddba db3c 1a23 e8bc 5f41 603d
00000160: 86c0 a43d 5fae 6a3d 9926 313d 467f a2bb
00000170: 5e14 813d c6f1 403d dfd8 d1bc 9bdd 7abd
00000180: 40a7 6a3d bc25 72ba a01b bd3d 320b 76bd
00000190: 6d76 febc 70bc bb3d c52e 24bd 4a55 f13c
000001a0: f325 093e d566 013e 302b 3c3d 3725 0dbd
000001b0: b942 b03d b9d0 ec3d a607 7fbd 9a9e 763c
000001c0: c8e2 3bbd bb8a d03b dd5b f7bc 7fb2 2b3d
000001d0: 04b6 543b f26e b2bd b73a 9abd 91d3 193d
000001e0: 9e0c 0abe 842d e13c 4248 003e e3da a8bd
000001f0: 94e3 e5bc d7a3 303d a521 913d cb86 053c
00000200: 7bae 5dbc c834 bb3c 4219 9dbd 327d 6a3c
00000210: b130 f7bd 2d4f 25bd a76e 1fbd aeaa 703d
00000220: b9e7 393c 80ef aebc b120 013e 69fc 15bd
00000230: 3a7f 903d 992a 303c 04cf 9abd a736 943e
00000240: 6f74 053c 64b8 b33d bed7 ecbc 1150 f2bc
00000250: 7535 4d3b adab 65be 468d ae3a c61c 7cbd
00000260: 931e 6d3d d674 813d 874b 503d 54c3 5fbd
00000270: 2d43 24be 834a 44bd 8fae 1c3d cb0f f23d
00000280: a9e4 b23d c369 323d ea5e 413e 5041 ddbc
00000290: 65fd 153e 9e31 bebd 1c63 133d 352b 903c
000002a0: 126b f8bd 8478 903d 2ef9 873d 2755 47bd
000002b0: 5fec 3ebd e641 bf3d a7a3 3d3d 59c7 8e3c
000002c0: ce89 32be d721 033d 944e aa3d 8b52 b33d
000002d0: 53f5 bcbc 0857 e3bc 1d6b 773d 9d65 2bbb
000002e0: e74e 663d 2f68 c4bd cfd3 153d 49ec de3d
000002f0: ec9d 10bd 8eb2 143d 5c64 12bc 2d06 c93d
00000300: de25 ff3d 6526 073d 2af1 d83c dae8 e7bd
00000310: c6f0 2e3d 811e 7cbd 9f11 68bd 20ac 25be
00000320: 46dc 4abc ec7e f03c 5387 94bd 51da 5f3d
00000330: f432 04be 00bf d0bc 1be1 7dbd 6041 293e
00000340: 8de7 a63c ec43 0c3d 3238 d33d 7ea4 903d
00000350: 1bf5 203d df89 a33d 1321 1cbc f9e8 903d
00000360: 865d e73c 10c6 683d cb55 e0bd 5839 77bd
00000370: a7e0 c6bd d015 0c3e ec28 c23d 0ace 513d
00000380: 3b4f 243e 968c 2e3d 69df 67bd 3e43 d33d
00000390: 25c8 623d 8086 833d 0265 8ebd 07bf 693d
000003a0: 94be 7bbd 1021 623d 86e0 3d3d 620b 1abd
000003b0: 364a fb3d 7952 023d 63dc b9bd 34b2 69bd
000003c0: 8287 fbbc 0f4a 9abc ac0c bcbd 463a e03d
000003d0: 0982 44bd a8aa 5e3b 9af5 d03d cca5 063c
000003e0: 755e 003b eb49 01be 6779 cf3c 58b0 9cbd
000003f0: 4023 b53d 0b2d b5bd 8f13 a43d 12cf 90bd
0.11318004 0.061290383 -0.038794562 0.044998173 -2.1308493e-05 0.015698452 -0.08629749 -0.10471529
0.058499817 0.13732721 -0.051885292 -0.088331886 -0.009321037 -0.08274405 -0.04216544 0.097136624
0.027021786 -0.10291528 -0.09239553 0.008305476 -0.063198484 -0.078514636 -0.015914988 -0.026368016
-0.067929566 -0.044320736 0.11914838 0.057451557 0.00028632046 -0.052207384 0.054494068 0.001160135
0.11734479 -0.037411317 0.004214679 0.0879957 -0.017205192 0.062773384 0.03820432 0.03868833
0.011502885 -0.05167266 -0.06003401 0.09304636 -0.041884474 -0.08738432 -0.01825858 0.011672429
-0.13961793 0.042839013 -0.0046906495 0.005194775 -0.027388413 0.11112786 0.023534155 0.12108877
0.1125845 0.0746169 0.05667071 0.06843077 -0.04150276 -0.14138354 0.0049850224 -0.056520697
-0.012981816 -0.038350757 -0.041050468 0.085823774 -0.03033402 0.06683045 0.087776385 0.046021145
-0.07069008 0.13469546 0.0808176 -0.04485612 0.09206885 0.09846897 -0.15957646 -0.0688634
0.0550773 0.101567015 0.011034309 0.1535786 0.050945587 0.026822502 -0.02833705 0.054749843
0.080445334 0.0572952 0.0432497 -0.00495902 0.06302713 0.047105573 -0.025616108 -0.061246496
0.05728841 -0.000923719 0.09233785 -0.06006927 -0.03106233 0.09166801 -0.040083665 0.029459614
0.13393383 0.12636884 0.045939624 -0.03445932 0.08606476 0.11563248 -0.062263153 0.015052462
-0.045870572 0.006364194 -0.030195171 0.041918274 0.0032457123 -0.087125674 -0.0753073 0.03755528
-0.13481376 0.027487524 0.12527564 -0.08244874 -0.02806262 0.043125 0.07086495 0.008149813
-0.013530369 0.022852316 -0.07670833 0.014312075 -0.12069834 -0.04035871 -0.038923886 0.058756523
0.011346751 -0.021354437 0.12610127 -0.03661767 0.070555165 0.010752344 -0.07559016 0.28947946
0.008145436 0.08775404 -0.028911468 -0.029579194 0.003131238 -0.2242877 0.0013317249 -0.061550878
0.057890486 0.06321113 0.05085328 -0.05462964 -0.1604125 -0.047922622 0.03825241 0.118194185
0.0873502 0.043557893 0.18883863 -0.027008682 0.14647444 -0.092868075 0.03598319 0.017598728
-0.12129797 0.070542365 0.06639324 -0.048665192 -0.04661214 0.09338741 0.04629865 0.01742904
-0.17435381 0.032014694 0.08315769 0.08755978 -0.023066198 -0.02775146 0.060404886 -0.0026153096
0.05622759 -0.09590184 0.03657895 0.108849116 -0.035306856 0.036303096 -0.00893506 0.09815631
0.124583945 0.0329956 0.026482183 -0.1132371 0.04271009 -0.06155253 -0.05665743 -0.16178942
-0.012381619 0.029357396 -0.072523735 0.054651562 -0.12910062 -0.0254817 -0.061982255 0.16528845
0.020374084 0.034244463 0.10313453 0.070626244 0.03929625 0.07985281 -0.00952937 0.07075686
0.028242838 0.056829512 -0.10953864 -0.06035742 -0.09710818 0.13680196 0.094804615 0.051221885
0.16045849 0.042614542 -0.056609545 0.1031556 0.055366654 0.06422138 -0.069528595 0.057066943
-0.061461046 0.055207312 0.0463567 -0.03760851 0.12270014 0.031816933 -0.090752386 -0.057054713
-0.030704264 -0.018834142 -0.091821045 0.10948615 -0.047975574 0.003397623 0.10203095 0.00821824
0.001958755 -0.12625854 0.025326444 -0.076508224 0.08844614 -0.08846482 0.08011543 -0.070707455

fc2.bias f4 [84]
00000000: 6e91 6c3d ccdb 3c3d be18 8e3d 9361 413d
00000010: 4bfa 523d 8385 8b3d 114a 8c3d 3e01 c3bd
00000020: 5ce8 8f3c bb3f 733d 90ab 2c3c 12cd d43c
00000030: 4f62 8fbd d892 f73d 3e7c dabd a891 1c3d
00000040: 22c3 99bd f5d8 88bc 875e df3b 8946 50bd
00000050: c787 b93d 4867 573d a437 d03d 7b61 bb3b
00000060: 8df9 84bd 25e6 b73d 32c6 ca3b 87ea 26bb
00000070: 3075 a03d 48c5 5bbd d0e8 41bd 4cfa 00be
00000080: 8471 903d 8db8 183b 4237 ea3c 0dba 0f3d
00000090: 3c87 e53d 0042 1bbd cb35 393d 5357 263c
000000a0: 6fa8 30bd 759b c1bd 9d97 4cbd ca0b 033d
000000b0: 1402 8bbc b485 92bd 8d76 ebbc 158b 89bd
000000c0: c3f4 45bd 7d1b 9b3d aed2 03bd accf 7b3d
000000d0: d54c 7fbd 1951 d33c 503c a03d 8163 72bd
000000e0: f4b6 8ebd 06f6 9cbd f6c9 7bbd 3589 05bc
000000f0: bb04 ec3d 0655 36bc 51d3 8a3d 5a2c 0d3d
00000100: 607f 7d3d acc8 853c d21e 3e3d 085a 21bd
00000110: ed4e e93d fb6c 97bd abdf cabd 8a56 193e
00000120: 38a5 0bbd eeab 9f3b 12bf d3bd 3c4c 7abd
00000130: efaf dd3c 813a 963d ff22 a33d 18d1 8fbd
00000140: af89 27bd c14e 973c 5946 953d c013 163e
0.05775588 0.046108052 0.06938313 0.047212195 0.05150823 0.06812575 0.068500645 -0.09521721
0.017566852 0.05938695 0.010538951 0.025976691 -0.07001173 0.12088555 -0.106682286 0.038224846
-0.07507922 -0.016705016 0.0068166885 -0.050848518 0.090591006 0.05258873 0.101668626 0.0057184077
-0.064929105 0.089794435 0.0061881775 -0.002546938 0.07834852 -0.05365494 -0.047341168 -0.1259548
0.070529014 0.002330336 0.028590802 0.03508954 0.112074345 -0.03790474 0.045217317 0.010152656
-0.04312938 -0.09453479 -0.049949277 0.031993665 -0.016968764 -0.07154408 -0.028743053 -0.06715981
-0.048329126 0.07573602 -0.03218334 0.06147735 -0.062329132 0.025795506 0.07824004 -0.059176926
-0.06968489 -0.07664113 -0.0614719 -0.0081503885 0.1152434 -0.01112867 0.06778587 0.034466125
0.061889052 0.01633104 0.04641611 -0.0393925 0.11392007 -0.07393833 -0.099059425 0.14974418
-0.03409311 0.0048727905 -0.10339178 -0.06110786 0.02706143 0.073353775 0.07965659 -0.07022303
-0.04090279 0.01847017 0.072888084 0.14655972

fc3.weight f4 [10, 84]
00000000: 4704 0bbe e21d 8fbd 3e43 d6bd bb38 34bd
00000010: 9f6f c93c a07d 69bd 01ee ddbd 4180 18bb
00000020: 93b2 34be 36ad 1abe 5e4d d7bd def6 8dbc
00000030: ff57 02bd 6513 953d 4af1 a33d 1d34 b13d
00000040: 7df9 2abd aec4 a13d 44c7 afbc 6041 44bb
00000050: d72e cf3c 65ad f1bc 2ae1 1c3e d131 92bd
00000060: aac9 83bd 4d28 77bc d109 4bbe 2b82 b73c
00000070: 7e82 dbbd 49e0 8d3d d795 0dbe 90e1 5abd
00000080: 57ec 30bd a69d 78bd 23be 1f3c 8867 17be
00000090: 89eb 883d d208 a6be aa8d a5bd 4c70 1abd
000000a0: 4dd1 d03d 705e f2bd f391 59bd 0a11 b73d
000000b0: 8ca0 ac3d f741 583d b85f 8abd 5dec 9bbd
000000c0: 2c63 b8bd 4162 a8bd d33b b9bd 62f9 5a3d
000000d0: 2f0d e33c 04e4 ba3c a057 25bc b570 80bd
000000e0: db50 9b3d 646b 243d 05d7 87bd 87bd 353e
000000f0: 3557 aa3d d922 c33c cdbb 5a3d 26c3 d7bd
00000100: 7511 bb3d a803 62bd 17c5 333d 448e be3d
00000110: d5b6 54bc b7e0 a5bd 3aec 37bd c67f 8fbc
00000120: 1eb3 9a3d 2753 23bd bd0f 44bd ec98 263e
00000130: 343c 1f3e a54f f5bc b075 81bd 1346 89bb
00000140: d454 943d 4fd1 553d 8c36 fa3d 9e85 ddbc
00000150: af65 59bd 73e9 11bd 5476 b33d f703 27bd
00000160: c867 673d 8f7b 5bbe b30d 193e 7202 7b3d
00000170: 7b97 1ebe c904 d5bd 9d81 593d 13bc 0b3e
00000180: 5180 fcbd fc2f 6abe 4604 8ebd cd48 f83d
00000190: 250f fe3c 575a debd 0560 f9bd 0239 d73d
000001a0: 93a8 adbc 0123 083e 15d2 14be f7bb 13be
000001b0: d6fe c4bd d125 0dbe ac44 23bd de4f 263d
000001c0: f02c 2bbe 6fb6 1bbd 2c56 373d f521 45bd
000001d0: 80fd 973c 7194 ecbd f2c2 003e 3529 81bc
000001e0: a37c 0cbe b260 e2be f537 8fbc 5585 253d
000001f0: eb71 c33d fa39 da3c 914d d6bb a48a 1abe
00000200: ed10 023e ceac 78bd 3727 c53d 437f 813d
00000210: 831c debd 2071 c9bd 4d53 30bd b45a 40bd
00000220: 8c59 013d 9e08 1bbe 9b93 0bbe b08d 8cbd
00000230: 23cf e53d f2c1 a4bd 7cbd f33c c03b 3cbd
00000240: 8ea4 de3d 6b20 c9bd 99ee 68be 2445 7dbb
00000250: 58bb 06be 4cda babc 26f4 53be d88c f5bd
00000260: 21f9 6cbe fabc 27be 3a70 803c 4fe6 15bd
00000270: e52c 51bb 372e 22be 1c8e 803c 962b bcbd
00000280: 9da2 f03c c873 1a3c 1ce3 6b3c 1a4b 4dbd
00000290: 4011 043e b49f 043e 8c88 abbc 4605 1abe
000002a0: d9f0 c63d 48bd 69bd 2ba7 38be 5272 92bd
000002b0: 7bfc d93d 88bf b63d 9d1c d93d b69c b7bd
000002c0: e16c 593d 6678 8ebd 783a 13bb abaf b33d
000002d0: d3b8 87bc 6c8e cdbd 1dd7 39be dd3f a3bd
000002e0: 36b8 33bd 7acf 27be 7d9c 84bc 9fe8 563d
000002f0: 086b aebd 7a57 36bd db97 923d a92e 02be
00000300: d804 5fbd cb7e 823b e64f 503d cdcd f73c
00000310: e7ca c13c fb11 723c 1a43 d5bd 9c07 79bd
00000320: 5902 083e 643b 393d f0cd cdbd 5033 45bc
00000330: 5d46 c03c 4816 29bf 569c 4bbe 7331 ffbd
00000340: 8e8b 1d3e f066 d2bd 4888 3f3d eb8d 8c3d
00000350: 3ab7 babd 307f 92bd 8733 abbd 2df5 8d3d
00000360: 0338 9d3b 7c90 aa3d dfca 61bd 5492 853d
00000370: ead7 dbbd d91a 09be 9957 c9bd efdd f13c
00000380: d482 45be 2d0c afbc cd4c 80bd 3ce5 77be
00000390: 3e43 1dbd 1121 5bbd e225 f5bd e895 eabb
000003a0: 26b2 45bd db8c 56bc e6f5 54bd 897f 213e
000003b0: 810f 063e 994c 4e3c 92b8 5ebd 5ff8 0c3e
000003c0: deb6 bc3d 7634 47be d2e2 a63d a212 02be
000003d0: 2eef a6bd bb7a 8e3d 2442 9a3d 71ba aabc
000003e0: 10c7 833c 6fa8 b83d 4557 79bd 97ea 213e
000003f0: a06f 0c3e 310f 003e 48da 18bd 03cd 843d
-0.1357585 -0.069881216 -0.10462044 -0.043999415 0.024589358 -0.05700457 -0.10836411 -0.0023269805
-0.17646246 -0.15105137 -0.105128035 -0.01732963 -0.0318222 0.0727909 0.080050066 0.08652518
-0.041741837 0.07898842 -0.021457322 -0.0029946193 0.02529089 -0.029501626 0.15320268 -0.07138408
-0.06434949 -0.015085292 -0.19827963 0.022400936 -0.10718249 0.069275446 -0.1382669 -0.05343777
-0.04319414 -0.06069722 0.009749922 -0.14785588 0.0668555 -0.32428604 -0.08083661 -0.03770475
0.10196171 -0.11834419 -0.053117704 0.08938797 0.084290594 0.052797284 -0.06756538 -0.07613442
-0.090032905 -0.082218654 -0.09044614 0.053460486 0.027716247 0.022813804 -0.010091692 -0.06271497
0.07583781 0.04014148 -0.066328086 0.1774808 0.08317415 0.023820328 0.053401757 -0.105352685
0.09134189 -0.055179268 0.04388913 0.09304479 -0.012983044 -0.080995016 -0.044903018 -0.017516982
0.07553695 -0.039874222 -0.04786657 0.16269273 0.1555031 -0.029945204 -0.06321275 -0.0041892617
0.07242742 0.052201565 0.12217435 -0.027041253 -0.05307549 -0.035623025 0.08762804 -0.040775266
0.056495458 -0.21433853 0.14946632 0.06128163 -0.15487473 -0.10401303 0.053102124 0.13645963
-0.12329162 -0.22869867 -0.06934409 0.12123261 0.03101308 -0.10857075 -0.121765174 0.1050892
-0.021198547 0.13294603 -0.14533265 -0.14427172 -0.096189186 -0.13783957 -0.039860412 0.04060351
-0.16716361 -0.03801578 0.044759914 -0.048128087 0.018553495 -0.115517505 0.12574366 -0.01576672
-0.1371942 -0.44214398 -0.017482737 0.04041036 0.095432125 0.026638974 -0.0065400084 -0.1509195
0.12701769 -0.060711674 0.0962662 0.06323101 -0.10845282 -0.0983603 -0.04304819 -0.0469615
0.03157954 -0.15140006 -0.13630526 -0.06862962 0.11221149 -0.08044805 0.02975344 -0.04595542
0.1087123 -0.09820636 -0.22747268 -0.0038645947 -0.13157403 -0.02280917 -0.20698604 -0.119897544
-0.2314191 -0.16380683 0.015678514 -0.036596593 -0.0031917628 -0.15837942 0.015692763 -0.09188001
0.029374415 0.009427018 0.014397409 -0.05012045 0.12897205 0.12951547 -0.020939134 -0.15041074
0.09713907 -0.05706528 -0.1803252 -0.07150711 0.1064386 0.089232504 0.10601161 -0.08965437
0.05308235 -0.06956558 -0.002246527 0.087737404 -0.016567623 -0.100369304 -0.18148465 -0.07971165
-0.04387685 -0.1638774 -0.0161879 0.05246794 -0.08516508 -0.044517018 0.071578704 -0.12713112
-0.05444798 0.0039824 0.050857447 0.0302495 0.023656322 0.014774795 -0.10413189 -0.060798272
0.13282146 0.045222655 -0.10049045 -0.01203616 0.023471052 -0.66049623 -0.19883856 -0.124606036
0.15385267 -0.1027354 0.046760827 0.06863006 -0.09116979 -0.07153165 -0.083594374 0.06931529
0.004797937 0.083283395 -0.055125114 0.065220505 -0.10734542 -0.13389148 -0.09831161 0.029524771
-0.19288188 -0.02136811 -0.062646486 -0.2420854 -0.038394205 -0.05349833 -0.11970116 -0.0071589835
-0.0482656 -0.013095106 -0.05199232 0.15771307 0.13091852 0.0125915045 -0.05437524 0.13766621
0.09214567 -0.19453606 0.08148731 -0.1270242 -0.08151089 0.06957003 0.075321466 -0.020840855
0.016086131 0.09016501 -0.060874242 0.15812145 0.13714457 0.12505795 -0.037317544 0.064844154

fc3.bias f4 [10]
00000000: 500c f13d e7ff 123a 1f7b 0c3e 1253 763d
00000010: a8aa cdbd 2e7d 5bbd 36ef 1a3d 11da a1bb
00000020: 096d 163d 2097 b53b
0.117699265 0.00056075904 0.13718842 0.060137816 -0.10042316 -0.053586178 0.037825786 -0.0049393256
0.036725078 0.005541697
