training/best_debugging/model_20230711_131506_1/model.pt (torch, 180527 bytes, 10 tensors)

conv1.weight f4 [6, 1, 5, 5]
000000 be 21 53 3e 0b 20 5e 3e 19 68 63 bc e2 a9 2c 3e
       0.2061834 0.21691911 -0.013879799 0.1686168
000010 d4 79 11 be a4 8b de 3d 8d ab 5f bd fb 3e 10 3e
       -0.1420663 0.10866478 -0.054606963 0.14086525
000020 13 83 36 3e b3 64 56 be b0 26 62 3e e0 7e a2 3d
       0.17823438 -0.20936851 0.2208507 0.07934356
000030 b7 55 14 3e 3e 0f 8b bb d8 8d 88 3d 06 16 61 bc
       0.14485823 -0.0042437604 0.066676795 -0.013738161
000040 97 43 39 3e 4c 17 5d 3c 27 12 1f be 65 ff da 3b
       0.1809219 0.013494324 -0.15534268 0.0066832774
000050 32 6c 0b be 40 a7 7f bd d9 8a 0a be 83 76 37 3d
       -0.13615492 -0.06241536 -0.13529529 0.044790756
000060 56 a1 71 be 1c 9c aa bd 2a 19 32 bd af 0e c4 bd
       -0.23596701 -0.08330557 -0.04348103 -0.09573113
000070 4b b8 97 bd 54 c7 d5 be 6b ed 53 3e 55 a6 19 be
       -0.07408198 -0.41753638 0.20696037 -0.15004857
000080 93 37 4d 3e f3 cf 0f bd 79 aa 9f be 33 cb 09 3e
       0.20040731 -0.035110425 -0.31184748 0.1345642
000090 2f da bf 3d 69 76 92 3e 58 0c 3c 3d 45 82 86 be
       0.09367787 0.28605965 0.04591021 -0.26271263
0000a0 a6 65 19 3d 2a ce 1e 3c 25 12 61 3e 1b 42 69 3e
       0.037450455 0.009692708 0.21979578 0.22779123
0000b0 dd e6 49 bd ec fc 0f be ed 44 2c 3e 2c 6d 0b 3e
       -0.049292434 -0.14061326 0.16823168 0.13615865
0000c0 89 dd 0d 3e c8 76 90 be c8 28 49 be 98 9a e0 bd
       0.1385404 -0.28215623 -0.19644463 -0.109669864
0000d0 de bb 52 be 13 8f 03 3e c2 b2 61 3d 5d ce 1a 3e
       -0.20579478 0.12847547 0.055102117 0.15117784
0000e0 b4 d2 bc 3d 9e 40 32 bd 33 57 ab 3d e5 44 36 be
       0.09219876 -0.043518655 0.08366241 -0.17799719
0000f0 de 5a 08 3e 49 55 d5 bc 31 ca 8c 3d 76 2d 22 be
       0.13315913 -0.026041644 0.068745025 -0.15837654
000100 55 06 9b bd d2 4b a9 3d 63 8f 87 3e e5 5f 02 be
       -0.07569567 0.08266415 0.26476583 -0.12731893
000110 b5 7e 6a be 5e 12 9c be 1a f4 91 3e 51 5e 1e 3e
       -0.22899897 -0.30482763 0.28506547 0.15465666
000120 cc ef 41 3e 26 25 83 be 63 65 b6 be ff 0d b8 be
       0.18939131 -0.2561428 -0.35624227 -0.35948178
000130 f3 e2 7a be 36 e2 33 3e aa ad 41 3e c2 5a 73 3e
       -0.24500637 0.17566761 0.18913904 0.2376509
000140 fd 37 98 be 41 e2 4f be c4 6e 8c 3e a1 0d 1c 3d
       -0.29730216 -0.20301153 0.27428257 0.038098935
000150 b0 88 47 3e ff d2 31 be b0 f9 0e 3e 76 fc 44 3d
       0.19485736 -0.17365645 0.13962436 0.048092328
000160 35 88 24 bc c8 a1 f8 3b 74 08 92 bd 63 10 d4 ba
       -0.01004224 0.007587645 -0.071305186 -0.00161792
000170 55 e8 a0 3e d8 c9 2e 3e be 12 9e be 38 3f 56 be
       0.31427255 0.17069185 -0.30873674 -0.20922554
000180 4d 17 8d 3e 29 e8 d8 3d d1 3d 18 bd 56 c7 b6 be
       0.2755684 0.10591156 -0.037168328 -0.35698956
000190 e4 00 1f be c7 73 7b bd 36 2a 17 be ef 12 5a be
       -0.15527683 -0.06138971 -0.14762196 -0.21296285
0001a0 ce 81 1e bd b2 6d 20 be 70 7b 79 be fb 80 7f be
       -0.03869801 -0.15666845 -0.24363494 -0.24951546
0001b0 f9 6b 9a be 30 74 43 be 88 bc 22 3e 5d 31 10 bd
       -0.30160502 -0.19087291 0.15892231 -0.035203326
0001c0 f8 2d 79 bd c2 3b 9d be 0c 1d 53 be 37 10 8a bd
       -0.060834855 -0.30709654 -0.20616549 -0.06741374
0001d0 06 ba ae bc de 27 83 be 3b ce 34 be 53 91 3c be
       -0.021328937 -0.25616354 -0.17656796 -0.18414812
0001e0 56 1a 94 bb 99 27 eb bd a1 b3 dc bd ee ac 5c be
       -0.004519741 -0.11482162 -0.10776449 -0.21550342
0001f0 a4 05 45 be bc f5 4c be 59 23 36 be f2 d5 92 be
       -0.19240433 -0.20015615 -0.17786922 -0.28678852
000200 4d 0e 32 3d f1 1d cf bd f5 cb aa 3d 21 1c 39 bd
       0.04347067 -0.10113133 0.08339683 -0.04519284
000210 a9 0b 82 be aa 99 4e 3d 12 80 ba bd 7f c1 e1 bd
       -0.2539952 0.050439514 -0.09106459 -0.110232346
000220 08 a6 4a be 38 9c 42 be 95 ea 2e 3d 59 de 30 bd
       -0.19789898 -0.19004905 0.042704184 -0.043180797
000230 d1 b1 a1 3d 4f f3 1e be 70 8c 58 3e 12 1f f1 bd
       0.07895244 -0.15522502 0.21147323 -0.11773504
000240 14 d8 8a bb 03 b6 26 3d 68 cc 0a 3e be a4 77 3e
       -0.0042371843 0.040700924 0.13554537 0.24183938
000250 d9 bf 35 3e 20 8a 08 be
       0.17748965 -0.1333394

conv1.bias f4 [6]
000000 d4 e4 e4 3d c8 c1 ae 3b 96 22 16 3d 28 67 a5 bb
       0.11176458 0.005333159 0.036654077 -0.0050476976
000010 84 6a aa 3d d3 d6 76 be
       0.083210975 -0.24105386

conv2.weight f4 [16, 6, 5, 5]
000000 7d 5c d7 3d 47 fa 05 3e c7 1b f2 bb c2 52 2a be
       0.105156876 0.13083754 -0.007388565 -0.16633132
000010 f8 ab 80 bd d3 1b b1 3d af b4 a2 3d 92 70 b6 bd
       -0.062828004 0.08647885 0.07944619 -0.0890819
000020 29 c4 9c 3b 88 81 5c bc 1d 90 04 3b eb ec b5 3d
       0.0047841263 -0.013458617 0.00202275 0.08883079
000030 6a 41 de bc a4 00 02 be d2 62 a5 bd e3 81 95 bb
       -0.027130801 -0.12695557 -0.08075489 -0.004562603
000040 72 d1 fa 3c 2a f0 a4 bd d7 be e0 bd cb 5e 2f bd
       0.03061745 -0.0805362 -0.109739 -0.04281501
000050 8e e2 8e bd b5 04 ad 3c fd 42 2b 3c 16 69 e7 bd
       -0.069768056 0.021120409 0.010452983 -0.112993404
000060 0a b3 23 3d 79 c7 47 3d ff 65 55 3e 28 33 2d 3e
       0.039965667 0.048774216 0.2083969 0.16914046
000070 49 df 5e 3e 2a ee fb 3d 00 bd 91 3d 3d 4b 13 3c
       0.21764864 0.123012856 0.07116127 0.008990106
000080 32 24 08 bc 24 3c 81 3d 63 29 3b 3d f3 c7 d4 3c
       -0.008309411 0.06310299 0.045693766 0.02597425
000090 b8 98 5d 3d 0c ff 66 3d d9 f3 85 bc 2d 46 4c 3d
       0.054100722 0.056395575 -0.016351627 0.049871612
0000a0 b5 df dc bc e6 b8 04 bd d4 df 05 bd b3 ca c0 bc
       -0.02696214 -0.032402895 -0.032684162 -0.023534155
0000b0 e4 35 f6 bc 38 c7 c3 bd 3a 55 30 3d a2 62 2b bc
       -0.030054994 -0.09559482 0.04305003 -0.010460528
0000c0 99 d6 9d bd fd 72 2b bd 7f fc f8 bb e8 8c e9 bc
       -0.07706947 -0.04185771 -0.0075984593 -0.028509572
0000d0 fc 60 c3 bc c0 49 a3 3d e7 88 29 3e 14 f5 b1 3d
       -0.023849957 0.07973051 0.1655613 0.08689323
0000e0 bf 17 e8 bc 28 8a 8a bd 2b bd a0 bc bb e8 2b 3e
       -0.028331636 -0.067646325 -0.019621452 0.16787998
0000f0 31 69 79 3c 8f c7 ca bc 12 44 2a bd 2a 39 79 bd
       0.0152228335 -0.02475336 -0.041568823 -0.06084553
000100 1c 26 35 bd 91 b0 e4 3c 00 60 8e bd 5f 21 cf bd
       -0.044225797 0.027916225 -0.06951904 -0.10113787
000110 e6 14 f6 bd 7c 8d 72 3d 03 cb 70 bb 6f c5 82 bb
       -0.12015705 0.05921696 -0.0036742098 -0.003990821
000120 c4 83 0e be 00 c8 ff bd 81 44 93 bd cf fc 50 3e
       -0.13917452 -0.12489319 -0.071908005 0.20408939
000130 b2 6f 22 bd e9 03 e5 3d bf 47 a5 3d e1 d0 9d 3d
       -0.039657302 0.111823864 0.08070325 0.07705856
000140 74 b9 8d bb e4 94 82 bd d9 ef 08 bd f4 5c c4 bd
       -0.0043250863 -0.06376055 -0.03343186 -0.09588042
000150 79 d0 68 bd 62 6d d4 bd 5d 8e f0 bd 3f 39 03 be
       -0.05683944 -0.103724256 -0.11745904 -0.12814806
000160 5b 06 a3 bd e7 31 88 bd e1 48 48 be b8 13 09 be
       -0.079601966 -0.06650143 -0.19559051 -0.13386428
000170 e4 44 54 be 52 b5 29 bd 77 a1 c5 bd d2 32 47 be
       -0.20729405 -0.041432686 -0.096499376 -0.1945298
000180 47 d9 2a be 3a fa 73 be e5 cd 8f bd a2 03 05 be
       -0.16684447 -0.23825923 -0.07021693 -0.12989667
000190 d3 72 f0 3c 24 19 b6 bc 25 34 ab 3d c1 93 06 3e
       0.029351627 -0.022228785 0.08359555 0.13142301
0001a0 d6 78 1b 3e 15 99 a2 bd a4 37 a9 3d 09 f1 ae bc
       0.15182814 -0.07939354 0.08262566 -0.021355169
0001b0 69 25 74 3d 8d c1 13 3e 68 5e 0f bd 4e ca c2 3c
       0.05960599 0.14429303 -0.035002142 0.023778107
0001c0 96 0a 2e bc a7 2a 3e bd a5 62 95 3d 34 7e f7 bd
       -0.010622641 -0.046427395 0.072942056 -0.12084618
0001d0 79 f7 60 3d f3 8c 3b 3d 77 bd 94 3d f4 06 1a bc
       0.05492351 0.045788717 0.072627 -0.009401072
0001e0 41 e4 fa bd 8d 73 4c bc 0d 9f 68 3c bc df d9 bd
       -0.12250567 -0.012478721 0.014198077 -0.10638377
0001f0 61 51 be bc 18 a1 c3 bd a5 13 38 3b 6d 10 09 3d
       -0.023232164 -0.095522106 0.002808788 0.03346293
000200 66 69 b4 3d 6f e6 d4 3d d4 b7 db bd fc 52 94 3d
       0.08809166 0.10395514 -0.10728422 0.072423905
000210 88 ae e9 3d 34 56 ff 3c aa d4 b9 3d 91 92 92 bd
       0.11410242 0.031169035 0.090737656 -0.071568616
000220 17 c5 8c bd 1a 24 51 bd 0b 27 89 3d 46 d0 0a 3a
       -0.068735294 -0.05105982 0.066969 0.00052953174
000230 c1 dd f2 bd 65 82 06 bd 4f 4b 10 bd 8e af e7 bc
       -0.118587025 -0.032839198 -0.03522807 -0.028281953
000240 9b 5c ef 3b af 81 34 bd ba ac 13 bd 44 e0 3b bd
       0.0073047406 -0.04406899 -0.036053397 -0.045868173
000250 57 30 a8 bd fe fa 69 3d 76 64 2a ba a4 86 02 3d
       -0.08212345 0.05712413 -0.0006499955 0.031866685
000260 c8 0d 78 bd 17 d0 81 bd 8e aa 3b bc 6d 19 14 3d
       -0.060560018 -0.06338518 -0.011454238 0.03615706
000270 86 41 93 bd a2 91 9a bc 3f 9d 95 3c df 0c 20 bd
       -0.07190232 -0.018868271 0.018263457 -0.039074775
000280 93 85 8f 3c 94 df 66 3d 00 21 2c bd f4 1e 60 bc
       0.017519748 0.056365564 -0.04202366 -0.013679255
000290 d7 7a ee bd 96 df 32 bd e6 71 0b 3d 8c 15 cd 3c
       -0.116445236 -0.04367026 0.03404417 0.025034688
0002a0 ef d0 51 bd 66 7c a6 bd a6 11 ba bd 6b 76 f5 bd
       -0.051224645 -0.08129196 -0.090853974 -0.11985477
0002b0 ea 8f b6 bd 1e 99 9d bc 5c 03 46 3d 4e 9b b2 3c
       -0.08914168 -0.019238051 0.048343047 0.02180257
0002c0 54 88 e8 bc 85 56 cc 3c 61 97 f7 3d 1a 29 c0 bd
       -0.028385319 0.0249436 0.1208942 -0.093828395
0002d0 cc 2a c6 3d e0 9e 0c 3e c3 e1 6a 3d 7d 50 f5 3d
       0.096761316 0.13732481 0.05734421 0.119782425
0002e0 9f fb 0a 3d 8a ed cf 3d ee d1 cf bc d0 4c 25 bd
       0.03393137 0.10152729 -0.025368657 -0.040356457
0002f0 86 1f a8 3c 7d f8 a0 bc 94 e4 51 3e 13 a8 18 bd
       0.020522844 -0.019649738 0.20497352 -0.037269663
000300 30 36 8f bd a3 d1 9b 3d 59 a2 14 3d 82 af 54 3e
       -0.06992757 0.076083444 0.03628764 0.20770076
000310 93 e4 6e 3d 23 58 5b 3c 95 6e b2 bd 6f 16 bf bc
       0.058323454 0.013387713 -0.08712498 -0.023326127
000320 ad 2a 4e 3d 81 72 bc 3c 7b 85 5a bc d1 f8 18 3e
       0.050333668 0.023003818 -0.013337488 0.14938666
000330 0f 44 77 3d b7 4f 54 bd 58 ad 8a bd 26 93 cc 3c
       0.06036764 -0.051833834 -0.06771344 0.02497251
000340 ac 08 d0 3d 5c 3e ec 3d e3 66 f3 3c 24 47 9d bd
       0.10157904 0.115353316 0.029712146 -0.076795846
000350 9b 3a bd bd 3d 04 23 3d d1 03 fa 3d 2c 56 b4 3d
       -0.09239694 0.039798964 0.12207759 0.088054985
000360 77 9a 7e bd d9 dd 15 bd 93 2c 31 bd 62 6a 52 3b
       -0.062159028 -0.036588524 -0.0432554 0.0032106866
000370 48 50 9e 3d da c9 9b 3d f0 4d 31 3d f5 ae 80 bd
       0.07730156 0.076068595 0.043287218 -0.062833704
000380 7b e6 c3 3d 34 39 9f 3c 35 ce f5 bb 4a be e8 3d
       0.09565445 0.019436456 -0.0075013884 0.1136442
000390 65 c5 a8 3d 79 d3 c5 3d 55 c2 a1 bb 42 08 84 bd
       0.08240775 0.09659476 -0.0049364963 -0.064468876
0003a0 ba 4b 0c 3e fc 0a b8 3d 2a b0 40 bd c4 2d 91 3d
       0.13700762 0.0898647 -0.047043003 0.07088807
0003b0 4f ac b0 3d 2f 60 e5 3d ff 9c e5 3c d8 d6 47 be
       0.08626615 0.11199986 0.028028963 -0.1951555
0003c0 55 b7 d1 3c bc 3b 3b 3c e5 19 84 3d 0e c7 a4 bd
       0.025600115 0.011427816 0.064502515 -0.08045779
0003d0 f1 02 2c be 77 83 3d 3e 2e 15 bb ba 0b b4 a9 3d
       -0.16797997 0.18507181 -0.001427328 0.082862936
0003e0 a1 6b 52 bd 27 f5 76 be 8c 80 0b be 1c e3 76 bd
       -0.051372174 -0.24116956 -0.13623255 -0.060275182
0003f0 16 b6 ff bc 11 ab 85 3d c7 ee f3 3c 2b ee 96 bd
       -0.031214755 0.06526769 0.029776944 -0.07369646

conv2.bias f4 [16]
000000 3c c2 ac 3c 2f 11 96 3d 92 11 9d 3d 3b 12 76 bd
       0.021088712 0.07327496 0.07669367 -0.06007598
000010 bb 2e 88 bd f8 47 bc 3d 45 6d 40 bd ec 1d bf 3c
       -0.06649538 0.091934144 -0.046979208 0.023329698
000020 84 43 b8 bd db 44 c2 3d 4f 56 a8 3c 4b 45 0d 3e
       -0.089972526 0.094857894 0.020548968 0.13795964
000030 8b 04 37 bc 85 0f 43 3d cc 0c c1 3c 29 86 a4 bc
       -0.011170517 0.047622222 0.023565672 -0.020083504

fc1.weight f4 [120, 256]
000000 c2 7a af bc 07 c6 d7 3d e5 a1 c4 ba f4 52 a4 bb
       -0.02142084 0.105358176 -0.0015001862 -0.0050147716
000010 f7 1f 0e bc 29 02 2d 3c 11 b7 13 bd cb 12 37 3d
       -0.008674613 0.010559597 -0.036063258 0.044695657
000020 0e 66 34 bc 9d 66 e5 3c e6 82 8e 3d 08 43 64 bc
       -0.01101066 0.028003031 0.06958561 -0.013931997
000030 02 1f 8f bd fc d4 38 bc 68 f1 42 3c c9 50 a9 3c
       -0.06988336 -0.011281248 0.011898376 0.020668404
000040 0d 53 ca 3d 5a 7d a8 bc 40 5f 49 bd f3 47 44 3d
       0.09879122 -0.020567585 -0.049163103 0.04792018
000050 ba d9 aa 3d 09 93 84 3d 7b 79 1e 3d 1e 6b bb 3c
       0.08342309 0.06473357 0.03869007 0.022878226
000060 8d 02 c3 3d 2a 42 92 3d cf 4b 30 3d 0b bb b2 bb
       0.09521971 0.07141526 0.043041047 -0.005454426
000070 4a 49 df 3c 3c c2 96 bc b0 d3 f2 ba 90 e5 29 3d
       0.027256627 -0.018403165 -0.0018526223 0.041478693
000080 06 f6 3e bc 03 c8 ad 3c 20 1d 91 bd 04 fd e4 bc
       -0.011655336 0.021213537 -0.07085633 -0.027952679
000090 37 8d 09 3d 94 e2 89 bc 70 f3 f9 3c 63 19 5d bb
       0.03358194 -0.016831674 0.030511588 -0.0033737055
0000a0 f6 00 45 3d da 4b 47 bd 66 1b 72 bd 6f 4e dc ba
       0.04809662 -0.048656322 -0.05910816 -0.0016808043
0000b0 66 28 01 3e 8c c1 9a 3d ac 73 ce 3b eb f1 06 be
       0.12613067 0.075564474 0.0063004103 -0.13178222
0000c0 77 59 1f 3c 28 3d 94 bd 15 a9 8e bd 9f 9a 8c 3d
       0.00972592 -0.07238227 -0.069658436 0.06865429
0000d0 ed 42 24 bd 42 75 68 3c 89 84 78 bd 1c dc 8d 3d
       -0.040102888 0.014188113 -0.06067327 0.06926748
0000e0 06 63 64 3c bc 7d af bd 90 18 1e bb a3 71 02 3d
       0.013939625 -0.08568904 -0.0024123527 0.031846654
0000f0 c7 3a 47 3d a9 ff a0 bc 80 0e ad bd c3 1b ed 3c
       0.04864004 -0.019653158 -0.08450031 0.028943902
000100 1a 75 e6 3c dd 46 df bc d5 1a 3e bc fc 51 64 3d
       0.02813201 -0.02725547 -0.011603077 0.05574225
000110 4a 3b 86 bd 72 93 05 bd c2 59 2f 3d fc ed 38 3d
       -0.06554277 -0.032611318 0.04281021 0.045148835
000120 bc 9a 91 bd f2 11 83 bc 09 d6 86 bd 36 78 b3 ba
       -0.07109591 -0.015999768 -0.06583793 -0.0013692442
000130 cf 7e e3 3c de f5 24 bd 57 62 67 bd af 68 10 3d
       0.027770428 -0.04027354 -0.05649027 0.035256084
000140 d5 72 9c 3d 1f ec fb 3a 2b af b2 bd 98 73 0f bd
       0.0763909 0.001922015 -0.08724817 -0.03502235
000150 3e df 6c 3d 7f db d3 3a d4 ad 93 3b 72 f8 0e ba
       0.057830088 0.0016163437 0.004506806 -0.00054538914
000160 ef 74 26 bd 7b 5c 43 bd c4 d4 0d bd 79 97 2f bd
       -0.04063886 -0.047695618 -0.034626737 -0.042869065
000170 bc 3e c7 bc fc 13 d5 bd 6d d3 7f bd 62 53 4a 3d
       -0.024321906 -0.10404202 -0.06245749 0.049395926
000180 9a 57 b7 bb 58 60 0f bd ab 6a 20 bb e0 be 7c 3d
       -0.0055951597 -0.03500399 -0.0024477642 0.06170547
000190 02 04 84 bd ae 69 60 bd 0a 13 18 bd cf 69 66 3c
       -0.06446077 -0.054788284 -0.037127532 0.014063313
0001a0 ef d6 40 bc 3d 25 92 bd 81 e4 34 3d 91 65 d6 bc
       -0.011769994 -0.07136009 0.04416323 -0.026171478
0001b0 68 1a a6 3d 90 20 a6 bc 7c 4f 90 bb 35 bd e0 3c
       0.08110505 -0.020279199 -0.0044040065 0.027433971
0001c0 d4 ad 85 3b 82 ff 43 3d 48 da ad bd 5e e2 91 bc
       0.00407956 0.047851093 -0.084888995 -0.017808136
0001d0 e6 b3 02 bd 6a 03 0e bc 54 eb 04 3d d7 d7 a9 3d
       -0.031909846 -0.008667806 0.03245099 0.08293121
0001e0 ce 78 90 3b 4b 6c 96 bd 54 f1 dd 3c 40 a7 49 3c
       0.0044089323 -0.07344874 0.027092613 0.012307942
0001f0 c8 68 14 3d 95 11 a6 bd f4 a9 92 3c 37 a8 66 3d
       0.03623274 -0.08108822 0.017903306 0.056312766
000200 fe 85 6a 3d 4d b3 fe bc 37 a0 25 bd c3 b5 03 3c
       0.05725669 -0.031091357 -0.040435996 0.008038941
000210 2a ad 39 bd 32 16 09 bd 94 7c b8 3b a2 67 93 bc
       -0.045331158 -0.033468433 0.0056300852 -0.017993752
000220 c0 1e 99 bc eb 8f 95 bd 1b c3 43 bd 0e 83 1c bd
       -0.01869142 -0.07302841 -0.04779349 -0.03821092
000230 c1 f5 e4 bc 0a 83 d2 3c 67 04 38 3c 13 79 9b 3c
       -0.027949216 0.02569725 0.011231518 0.018978631
000240 2b 8e 07 3e f9 f3 a4 3d c0 ff 41 3c f6 49 63 3c
       0.13237827 0.080543466 0.011840761 0.013872614
000250 5d 04 24 3d 57 cd a4 3d ba 33 24 3d 7b fa 4e bd
       0.040043224 0.08046978 0.040088393 -0.050531846
000260 79 eb 21 3d d5 35 d1 bc 16 f3 3e 3c 21 50 9e bd
       0.039531205 -0.025538364 0.011654636 -0.07730127
000270 15 88 d7 3d ce d2 99 3c 53 17 af 3c 30 f6 0b bd
       0.105240025 0.018777277 0.021373427 -0.03417033
000280 4a e3 55 3c 0b ea 9e 3d db d6 20 bd bd 9e b0 bc
       0.013054678 0.07759484 -0.039267402 -0.021560067
000290 39 48 e6 3d 45 80 b9 3d 58 2c 05 ba e4 5b 5b bb
       0.11244244 0.090576686 -0.0005080155 -0.003347152
0002a0 a4 9e 87 3d 72 5d 05 bd 80 cf 99 bd 9c 6b 0c 3d
       0.06622055 -0.03255982 -0.075102806 0.03428231
0002b0 f9 19 d5 3d 72 03 98 3c 5b 58 09 be ef e2 46 3d
       0.104053445 0.01855633 -0.13412611 0.048556264
0002c0 d4 c2 80 3d dc ea 84 3d 11 5f 06 3d 8e c4 3c 3d
       0.062871605 0.06490108 0.032805506 0.046085887
0002d0 20 ce 5f 3d db 08 b3 bc c1 0a ac 3c b5 19 b4 bc
       0.054639935 -0.021854809 0.021001222 -0.021984914
0002e0 b7 c6 9f 3d 05 58 8d bd a9 ce 27 3c c6 71 12 3d
       0.07801574 -0.06901554 0.010242143 0.035753034
0002f0 c6 5c 37 3e 4a df 89 3c 98 a3 a2 bd 48 3e e8 3d
       0.17906484 0.016830105 -0.07941359 0.11340004
000300 22 f3 87 bc b0 a9 e9 bd 09 94 61 bd d4 bb 42 bd
       -0.016595427 -0.114093184 -0.055072818 -0.047542408
000310 aa 25 24 bd 40 5e bc bd e4 bc 2e bd 73 ef 95 bd
       -0.04007498 -0.09197664 -0.04266061 -0.07321062
000320 bf 80 49 bd 91 aa ca bd be 50 b8 bc 5f 84 0f bd
       -0.049195047 -0.09895814 -0.022499438 -0.03503835
000330 68 69 ce 3c ac b5 0f bc 8c f6 b7 bd 0f 11 31 be
       0.025196746 -0.008771341 -0.08982572 -0.17291664
000340 de 59 96 3c d2 21 ee bc e7 ab 19 bc d0 c3 9d bc
       0.018353399 -0.029068861 -0.009379364 -0.01925841
000350 f9 d3 73 bc 8d c4 2d 3c f8 c9 a3 bd f9 22 76 3d
       -0.014882081 0.010605943 -0.07997507 0.060091946
000360 5b 0e 09 be b2 c0 25 bc 42 ae 0e bd 79 15 fa bc
       -0.13384382 -0.010116743 -0.034834154 -0.030527817
000370 11 7a 57 be ec 54 8b bc e3 60 a8 3d 95 84 2a 3d
       -0.21042658 -0.017008267 0.08221605 0.041630346
000380 83 4a dc 3c c9 10 ae 3c 62 24 d2 3b 39 90 99 3d
       0.026890999 0.021248238 0.0064130286 0.074982114
000390 fe 9c 56 3c ed 6c 84 3d 22 07 4e 3d ea 07 8f 3b
       0.013098953 0.064660884 0.05029977 0.004364957
0003a0 20 dd 82 bd eb d8 52 bd 6b a1 98 3b 0a 96 36 3c
       -0.063898325 -0.0514764 0.0046579144 0.011144171
0003b0 4c 0a 27 3c 63 87 92 bb 91 81 8f 3c 62 9f 49 bb
       0.010195326 -0.0044717058 0.017517837 -0.0030765166
0003c0 e0 6c 9e bd be eb 51 3c 7d f4 b7 bc 81 c1 d4 bc
       -0.0773561 0.012812553 -0.022455448 -0.025971176
0003d0 56 58 38 3c 5b e3 f0 bc ba 93 38 bc 77 66 01 3d
       0.01125153 -0.029405287 -0.0112656895 0.03159186
0003e0 7f f4 3c 3c 62 8d 8a bd 0d 5d 06 3d 98 52 c0 3c
       0.011532902 -0.06765248 0.032803584 0.023476884
0003f0 20 2f 63 bc c0 a9 c3 3b c9 52 07 3b 45 59 18 bd
       -0.013866216 0.0059711635 0.002064871 -0.03719451

fc1.bias f4 [120]
000000 1d 54 1b 3d f5 06 0a 3c 07 3a a4 3d 74 67 10 3d
       0.037922014 0.00842451 0.0801888 0.03525491
000010 0e 1b 99 3d d3 fe 7f 3d b5 c3 4f bd 14 e9 54 bd
       0.074758634 0.06249888 -0.05072375 -0.051980093
000020 b9 f5 63 3d 6a 2e c8 3d eb 8d db bc 10 39 67 3d
       0.05565426 0.09774478 -0.02680107 0.056450903
000030 37 8c 09 bc 68 db d6 bc ef f0 be 3d 91 d7 7d 3d
       -0.008395246 -0.026227668 0.09323298 0.06197316
000040 cb 2a 90 bd 9c d0 82 3d 9b 89 b5 3d 82 85 f5 bb
       -0.07039412 0.06387445 0.08864137 -0.007492722
000050 4d 82 99 3c 63 1a d9 3b a6 ec 14 3d 05 6e a9 3c
       0.01873889 0.00662546 0.036358498 0.020682344
000060 9a 61 86 bb 97 e5 b5 bc 6c 44 39 bd 07 ff 89 3d
       -0.0041009905 -0.022204204 -0.045231268 0.06738096
000070 35 e1 5d bd ab 3a b1 3d 4a 64 20 bd 51 98 1f 3d
       -0.054169852 0.08653768 -0.039158143 0.03896362
000080 39 d4 5f 3c 3b 75 5b 3d 17 d2 86 ba ad b0 39 3d
       0.013661438 0.053578597 -0.0010286 0.045334507
000090 1d cc 60 3d e5 5a 84 3d 90 39 3b bd 58 e3 22 bd
       0.054882158 0.06462649 -0.045709193 -0.039767593
0000a0 f9 0b f3 3c 20 15 8b bd 14 2d cb 3c 9b 99 d9 3c
       0.029668795 -0.06791139 0.024801768 0.026562503
0000b0 9a f6 78 3d 1e ad 82 3d 2e 1f ab bc a8 13 53 bd
       0.060782053 0.06380676 -0.020888891 -0.051532418
0000c0 3c b2 49 bc 54 c0 fb bc 16 ed cf ba 91 58 fa 3c
       -0.012310561 -0.030731358 -0.0015863504 0.03055981
0000d0 2f 19 7b 3c 10 91 7f bd 87 7f f9 3c 96 50 69 3c
       0.015325828 -0.0623942 0.030456318 0.014240405
0000e0 8c e4 8b 3c d6 6f 90 bd 34 df c8 bb 4a 69 00 bd
       0.017076753 -0.07052581 -0.0061301235 -0.03135041
0000f0 de 8b a3 3c b5 db 8c 3d a9 dc df bc b0 e2 1f b9
       0.019964155 0.06877843 -0.027326899 -0.0001524787
000100 1c 7d b0 bc 84 6e c3 3d 32 cf 54 bd b7 4e 1b bd
       -0.021544032 0.095425636 -0.05195541 -0.037916865
000110 20 88 28 bd 25 d3 3f bd 19 04 10 3c 04 10 a4 bd
       -0.041145444 -0.046832222 0.008790039 -0.08010867
000120 1c 6b 21 3b 67 71 f0 bc f1 ed e3 3c 28 0a 50 3d
       0.0024630493 -0.02935095 0.02782342 0.050790936
000130 86 5e 0a 3d 5e 83 af bc 08 3d 46 3c b4 dd 37 3d
       0.03378155 -0.021424945 0.012099512 0.044889167
000140 1c 92 78 bd b5 b7 9a 3c 83 8a 80 3d ca 26 7b bc
       -0.060686216 0.018886426 0.06276419 -0.015329072
000150 bb f1 8f 3c 55 44 f6 3b b2 1e 39 3d 60 d1 4f bd
       0.01757132 0.00751547 0.04519529 -0.050736785
000160 7a f6 c4 3b ca d6 ad 3c 9f 34 ac bd 0e 8e 11 bd
       0.0060108276 0.021220583 -0.08408474 -0.035535865
000170 c6 01 05 bb 11 32 6e bc 33 8e 1d 3d eb 22 f9 bc
       -0.0020295247 -0.014538304 0.03846569 -0.030412158
000180 f3 11 c8 bc 96 4a a0 bd f9 33 9f 3d 56 44 97 bc
       -0.024422621 -0.07826726 0.07773585 -0.018465202
000190 76 1e c5 3d 8c f5 10 3d ae 98 08 bd 66 69 ea bb
       0.096249506 0.03539042 -0.03334873 -0.0071536778
0001a0 8d 53 6f 3c 44 ac 8a 3d e6 e5 e8 3c 32 fd d7 bc
       0.014607322 0.06771138 0.028429937 -0.02636585
0001b0 23 b7 62 3d b3 ab 73 3d fa 7d 0f bd 1c cd 88 3d
       0.055350434 0.059489917 -0.03503225 0.066797465
0001c0 a3 d6 79 bd a7 ac aa 3c df 55 c2 3c 55 cb ac bc
       -0.06099571 0.02083428 0.023722587 -0.02109305
0001d0 2b d2 84 bb 6c 5c 75 3d f3 81 e7 3c 52 e8 e3 bc
       -0.0040533743 0.059902593 0.028260207 -0.02782074

fc2.weight f4 [84, 120]
000000 10 3a aa 3d f0 56 58 3d 55 73 43 bd 01 50 38 3d
       0.08311856 0.052817285 -0.04771741 0.044998173
000010 62 9c f8 bb 8b b2 31 3c 6c 07 ac bd 58 0c d6 bd
       -0.0075870017 0.010845791 -0.08399853 -0.10451573
000020 c2 5b 84 3d d0 6f d6 3d d7 32 7c bd c5 8f 92 bd
       0.06462814 0.10470545 -0.061571922 -0.07156328
000030 1f ad f0 bc b6 75 a9 bd 93 cd 11 bd 85 02 cf 3d
       -0.029379426 -0.08274405 -0.03559644 0.101079024
000040 dd 5a e1 3c 6e f9 d9 bd c4 54 d9 bd 7d bf 0e 3d
       0.027509147 -0.10643278 -0.10611871 0.034850586
000050 35 6e 81 bd 48 cc a0 bd 16 27 8a 3c 06 25 f0 bc
       -0.063198484 -0.078514636 0.01686434 -0.02931453
000060 40 2b 8c bd f1 b8 5a bd 64 25 bd 3d d7 9e 35 3d
       -0.06844187 -0.05339903 0.09235647 0.044340935
000070 48 1d 96 39 96 ec 90 bd 2c 35 5f 3d ac 0f 98 3a
       0.00028632046 -0.07076375 0.054494068 0.001160135
000080 1c 98 bf 3d 06 ea 1d bd 99 0f 0f bc 5a 8f 98 3d
       0.093551844 -0.03855326 -0.008731746 0.07449217
000090 9c 85 1c bd 62 91 85 3d 0e 75 b4 3c bc 8c c3 3c
       -0.038213357 0.0652187 0.022028472 0.023870818
0000a0 d5 ff 04 bc 74 8e 7d bd ac 05 70 bd 9a 09 a5 3d
       -0.008117636 -0.061903432 -0.05859916 0.08058472
0000b0 5a f7 92 bd ec d2 53 bd 89 ff 88 bc b7 3d 3f 3c
       -0.07176085 -0.051714823 -0.016723411 0.011672429
0000c0 ed b2 f3 bd a7 7d 0f 3d d7 51 49 ba ee 38 aa 3b
       -0.11899362 0.03503194 -0.00076797366 0.005194775
0000d0 9a c6 c2 bc 28 84 c7 3d 8c f6 0d bc 99 d2 c2 3d
       -0.023776341 0.09742004 -0.008664738 0.095128246
0000e0 32 ad bb 3d 91 fc 89 3d 65 97 5f 3d fb 56 a7 3d
       0.09163894 0.06737626 0.05458774 0.08170887
0000f0 a8 f8 44 bd 3e e9 de bd 66 59 a3 3b 3f 82 67 bd
       -0.0480887 -0.10884331 0.0049850224 -0.056520697
000100 ce 9a cb bc 13 98 93 bd 3b db 86 3c 2e 98 91 3d
       -0.02485409 -0.0720674 0.01646196 0.07109104
000110 c8 7b cd bc 57 90 2e 3d a3 8f 9a 3d 5d 3b 05 3d
       -0.025083438 0.042618122 0.07546928 0.032527316
000120 08 6b b7 bd f1 7a e7 3d bb bd 87 3d 84 4d 42 bd
       -0.089559615 0.11302746 0.06627985 -0.047437206
000130 d7 2b 9a 3d ef a6 a0 3d a9 57 e1 bd e6 df a6 bd
       0.07527893 0.0784434 -0.11003048 -0.08148174
000140 9e 2b 40 3d e3 ba 91 3d 57 73 52 3c 0a 5a 06 3e
       0.046916597 0.07115724 0.012844882 0.13120285
000150 a3 3d 11 3d 56 73 95 3c 0e fa b8 3c 03 ac ac 3c
       0.035459172 0.018243473 0.022580173 0.021078115
000160 94 f0 82 3d bb 67 28 3d e1 f8 04 3d 60 71 db bb
       0.06393543 0.04111455 0.032463912 -0.006696865
000170 1f 1c 72 3d 8c cc 25 3d 8c 36 59 bd f3 56 44 bd
       0.05910885 0.040478274 -0.053030536 -0.047934484
000180 15 9b 5e 3d bc 25 72 ba 18 e2 31 3d 32 0b 76 bd
       0.054347117 -0.000923719 0.04342851 -0.06006927
000190 d4 03 2a bd 4c 8e b4 3d 5f a3 5a bd 4a 55 f1 3c
       -0.041507557 0.088162035 -0.05337846 0.029459614
0001a0 09 b6 1b 3e d5 c7 d6 3d 63 52 9f 3c 71 0b 23 bd
       0.1520616 0.10487334 0.019448465 -0.039805833
0001b0 b9 42 b0 3d b7 00 b5 3d b0 ed 77 bd 97 5b 3e bc
       0.08606476 0.08838027 -0.06052941 -0.011618516
0001c0 c8 e2 3b bd d2 03 26 bc c5 3a 11 bd d3 a7 13 3d
       -0.045870572 -0.010132747 -0.035456438 0.03604872
0001d0 b4 8e e8 3c f0 ab a7 bd 1a bf a1 bd c2 9d e4 3c
       0.028388359 -0.08187091 -0.07897778 0.027907256
0001e0 5a 07 f8 bd 09 3a 46 3d 80 f9 cd 3d e3 da a8 bd
       -0.12110777 0.04839519 0.10057354 -0.08244874
0001f0 bf 7d 8d bc fc ac 1f 3d c6 9e fd 3c f5 50 02 3c
       -0.017271874 0.03898333 0.030959498 0.007953872
000200 2d 1e 03 bd a8 b2 8e 3c eb a0 98 bd 0e 73 18 3d
       -0.0320112 0.017419174 -0.07452568 0.0372191
000210 f7 f9 96 bd 2d 4f 25 bd 81 c5 49 bd 4f 20 ef 3c
       -0.07371896 -0.04035871 -0.04926062 0.02919021
000220 89 54 52 3c ad 61 11 bb b5 b4 83 3d 7d 15 35 bc
       0.012837538 -0.0022183463 0.064309515 -0.0110524865
000230 3a 7f 90 3d 99 2a 30 3c 96 70 08 bd 75 de 09 3e
       0.070555165 0.010752344 -0.033310495 0.13463767
000240 05 04 d9 3a c0 65 a1 3d fb d5 70 bc f9 f9 b9 bc
       0.0016556984 0.078807354 -0.014699454 -0.022702204
000250 75 35 4d 3b 88 33 0f be 46 8d ae 3a c6 1c 7c bd
       0.003131238 -0.13984501 0.0013317249 -0.061550878
000260 de 5a 32 3d 44 40 2c 3d 39 fe 4e 3d ca f1 83 bd
       0.04354369 0.042053476 0.050535414 -0.06442602
000270 12 67 ba bd 2c 93 ea bc 39 d6 e3 3c f2 0d cb 3d
       -0.0910169 -0.02863463 0.02781211 0.09914769
000280 2b 85 c7 3d 84 fc 64 3d 5c 27 2b 3e 77 f5 d1 bc
       0.09742197 0.05590488 0.16714233 -0.025629742
000290 bf e1 d1 3d bd 4b 3e bd 28 72 5d 3d 35 2b 90 3c
       0.10248136 -0.04645895 0.054063946 0.017598728
0002a0 65 0c ba bd e4 cc 9a 3d 2e f9 87 3d 27 55 47 bd
       -0.09084395 0.07558611 0.06639324 -0.048665192
0002b0 25 a6 5e bd 63 d0 c2 3d e1 0f da 3b ec a1 ac bb
       -0.054357667 0.09512403 0.006654725 -0.005268326
0002c0 a9 43 dc bd 3b 49 17 3d 4f 75 b2 3d 8b 52 b3 3d
       -0.10755093 0.036935072 0.08713781 0.08755978
0002d0 39 0b d0 3c 45 18 23 3c 1d 6b 77 3d 9d 65 2b bb
       0.025395976 0.009954517 0.060404886 -0.0026153096
0002e0 37 3e 20 3d 1c 97 48 bd 1f 5d 99 3d 97 25 e3 3d
       0.039121833 -0.048972234 0.074884646 0.11091154
0002f0 19 cf 8e bc 8e b2 14 3d 48 da 89 bc 25 f1 89 bb
       -0.017432736 0.036303096 -0.016827717 -0.004209655
000300 5b 51 01 3e 91 96 29 3d ba 4a 29 3d 87 26 96 bd
       0.12628691 0.041403357 0.04133103 -0.07331567
000310 a7 b8 95 3d 65 6e 4a bd 7f 1b 0f bd 21 3a c0 bd
       0.0731061 -0.049421687 -0.03493833 -0.09386087
000320 22 24 8e bc e3 c7 26 3c 0b 51 89 bd d6 9c 52 3d
       -0.017351214 0.010179493 -0.06704911 0.0514191
000330 b0 74 b0 bd 9a 58 dd bc 0d ab 43 bd f4 c7 ff 3d
       -0.086160064 -0.027019788 -0.04777055 0.1248931
000340 92 b8 81 3c b6 b3 23 3d b9 10 bc 3d 9e dd a1 3d
       0.01583508 0.039966308 0.09182877 0.07903598
000350 58 f6 8b 3d 98 1f c3 3d 22 34 52 bc a8 6c 96 3d
       0.06834096 0.095275104 -0.012829812 0.07344943
000360 b1 03 12 3d 10 c6 68 3d 45 15 8a bd 58 39 77 bd
       0.03564805 0.056829512 -0.06742338 -0.06035742
000370 00 2a e4 bd 1e 95 da 3d 90 6b 97 3d 0a ce 51 3d
       -0.11140823 0.10672973 0.07393563 0.051221885
000380 2e e9 0f 3e cd 15 9a 3c 0c 72 6e bd d6 83 b9 3d
       0.14053795 0.018809224 -0.058214232 0.09058349
000390 25 c8 62 3d 14 1a 52 3d 74 12 90 bd 65 7b 92 3d
       0.055366654 0.0512944 -0.0703477 0.07152442
0003a0 94 be 7b bd cc 2f e4 3c 57 fc 80 3d 85 60 24 bd
       -0.061461046 0.027854823 0.0629813 -0.04013111
0003b0 b3 d5 bb 3d 51 f1 49 3d c8 8b 94 bd 37 cb a7 bd
       0.09171619 0.049302403 -0.07253224 -0.08193057
0003c0 50 72 e4 bc 7f c0 0e bd 21 a9 b7 bd 46 3a e0 3d
       -0.02788654 -0.034851547 -0.08967806 0.10948615
0003d0 fb b8 83 bd 75 06 a5 bc 9a f7 c2 3d 7a 5f 03 3c
       -0.064317666 -0.02014468 0.095198825 0.008018369
0003e0 46 35 e8 bc f6 56 cf bd e4 20 90 3c 41 50 8b bd
       -0.028345715 -0.10124008 0.017593808 -0.068024166
0003f0 16 5e ac 3d 0b 2d b5 bd c1 ee 6a 3d aa 03 90 bd
       0.08416383 -0.08846482 0.0573566 -0.07031949

fc2.bias f4 [84]
000000 b8 d6 28 3d af 00 4f 3d 44 0c 8e 3d 0a 74 1e 3d
       0.041220397 0.05053776 0.06935933 0.038684882
000010 cc df 8f 3c b0 d8 83 3c f1 29 66 3d 39 e9 e5 bd
       0.01756277 0.016094536 0.056192342 -0.11226124
000020 19 a1 d3 3c 72 1b 8c 3d 4d 74 6a bc d8 e8 e1 3c
       0.025833653 0.06841172 -0.014309955 0.027576849
000030 82 de 4a bd c6 22 b1 3d f7 71 b7 bd 2c ff 1d 3d
       -0.049528606 0.08649211 -0.08957284 0.03857343
000040 54 9e 91 bd 37 8d 3c bd 1b ad 4e bb 6a 0b 85 bd
       -0.07110277 -0.04603311 -0.0031536284 -0.06496318
000050 f6 e0 84 3d 91 81 92 3d 2d 03 71 3d 9e b1 24 bd
       0.064882204 0.07153619 0.05884092 -0.04020845
000060 8d f9 84 bd 60 b3 3d 3d 04 45 bc bb 5f ae e0 bc
       -0.064929105 0.046313643 -0.005745532 -0.027426897
000070 bf a3 22 3d 3b 07 29 bd 55 24 34 bd 75 29 b9 bd
       0.03970694 -0.04126666 -0.04397996 -0.090411104
000080 72 6b 75 3d 92 61 be bc 74 83 64 3d c9 e2 9e 3b
       0.05991692 -0.023239885 0.055789426 0.0048488122
000090 65 a7 9c 3d 5f 6c 95 bd f1 01 34 3c 0d 34 08 3d
       0.076491155 -0.07296061 0.010986791 0.033252764
0000a0 60 66 3d bd 74 21 d1 bd 7c 56 34 bd c2 18 cc 3a
       -0.04624021 -0.10211459 -0.04402779 0.0015571343
0000b0 4b e8 e1 bb 0f 2c 97 bd 00 d7 28 bc 64 ac 89 bd
       -0.0068941466 -0.073814504 -0.010305166 -0.06722334
0000c0 06 5a 43 bd 33 9b 62 3d 12 76 3a bd 9a 43 74 3d
       -0.047693275 0.05532379 -0.045522757 0.059634782
0000d0 d5 4c 7f bd 43 a4 33 bb ef ae 96 3d 76 c0 5b bd
       -0.062329132 -0.002741114 0.07357585 -0.053650342
0000e0 5e 86 a0 bd d9 3c 8b bd f6 c9 7b bd d0 0c 00 bd
       -0.078381285 -0.06798715 -0.0614719 -0.03126222
0000f0 d8 fa da 3d e3 46 dc bb ff 92 73 3d 2b 11 58 3d
       0.10692376 -0.0067223175 0.05946636 0.052750748
000100 1b 46 89 3d 2d e9 c6 3c d6 a3 44 3d 6c 63 4a bd
       0.06702825 0.024281109 0.04800781 -0.049411222
000110 0e 11 b5 3d bc 21 65 bd ab df ca bd 19 8f f3 3d
       0.088411435 -0.055940375 -0.099059425 0.11892528
000120 8c db 75 bd fc 1d 87 3c 12 bf d3 bd 86 63 be bd
       -0.06002383 0.01649379 -0.10339178 -0.09296326
000130 45 f7 17 3d 1b e8 29 3d 60 52 9d 3d 18 d1 8f bd
       0.03710105 0.04148112 0.076817274 -0.07022303
000140 0a a8 04 bd 01 26 4c bc ca f6 be 3d c0 de ed 3d
       -0.032386817 -0.012460233 0.09324415 0.11614752

fc3.weight f4 [10, 84]
000000 30 05 0b be 9c e1 78 bd a9 a0 a9 bd fd 1b 95 bc
       -0.13576198 -0.060762033 -0.082825966 -0.018201822
000010 25 7c 07 3d 86 fe 8f bd ac 21 98 bd 5e 2d 0d bc
       0.033077378 -0.07030968 -0.074282974 -0.008616773
000020 8d c8 13 be 7c b7 10 be f6 d0 cb bd 11 5c 93 bc
       -0.14431973 -0.14132494 -0.099519655 -0.017988237
000030 de 5d 1f bd 72 c3 a4 3d a0 86 a1 3d a7 e1 6b 3d
       -0.038907878 0.08045091 0.07887006 0.057588246
000040 df ba 8b bd 2a 82 f8 3c e2 64 c0 bc 05 97 6b bb
       -0.06822752 0.030335505 -0.023485605 -0.003594817
000050 42 0a 51 3d 54 78 1c bd d3 6c 17 3e 60 61 66 bd
       0.051035173 -0.03820069 0.14787607 -0.056245208
000060 aa c9 83 bd 28 96 18 bd 27 e1 21 be 01 bb a0 3c
       -0.06434949 -0.037252575 -0.15808545 0.01962042
000070 fc cb d1 bd 12 62 92 3d 60 93 01 be 9e dc 8e bd
       -0.10243985 0.07147612 -0.12653875 -0.06975673
000080 ab 8d 58 bd e9 6c 53 bd 3b 56 14 3a c9 47 10 be
       -0.05286948 -0.051617537 0.00056586013 -0.14089884
000090 ee e1 1f 3d 55 5f 89 be db 48 3f bd ce c9 59 bc
       0.039033823 -0.26830545 -0.04670034 -0.013292743
0000a0 9b bd 63 3d 0a db b6 bd c5 ed 27 bd fd c9 b4 3d
       0.055600744 -0.08928497 -0.04099824 0.08827589
0000b0 35 8b b7 3d e5 95 84 3d 55 7b 36 bd af 77 99 bd
       0.089620985 0.064739026 -0.044551212 -0.07493531
0000c0 b2 41 b8 bd df ef c0 bd bd 16 bd bd 6a 2d 1f 3d
       -0.089969054 -0.09420752 -0.092328526 0.03886167
0000d0 2f 0d e3 3c f5 cb cd 3c db 1c 83 3c 7c 48 62 bd
       0.027716247 0.025121668 0.01600497 -0.055244908
0000e0 80 cf 9b 3d 70 5e 9f 3d 05 d7 87 bd 02 20 2e 3e
       0.07607937 0.077816844 -0.066328086 0.17004398
0000f0 d5 67 9b 3d da 64 a5 3c ef ed 09 3d bb 26 5e bd
       0.07588164 0.020189691 0.033674177 -0.054236155
000100 45 27 ac 3d 65 aa 60 bd 25 f5 3c 3d e7 13 b9 3d
       0.084059276 -0.05485 0.046132226 0.09036999
000110 94 8c 9a bc 18 1d c4 bd 3a ec 37 bd ec 9a ba bb
       -0.018865861 -0.09575862 -0.044903018 -0.0056947377
000120 de 1c 92 3d a2 cb 6a bc bd 0f 44 bd 71 10 e5 3d
       0.07134412 -0.014330776 -0.04786657 0.111847766
000130 6f da fc 3d a9 ab 5d bd c1 ea 8c bd 13 46 89 bb
       0.123463504 -0.054118786 -0.06880713 -0.0041892617
000140 f6 f6 95 3d 10 8f 3d 3d 00 2a fd 3d 9f 6c f6 bc
       0.07322495 0.046279013 0.123615265 -0.030081091
000150 69 bb 0a bd f6 bd e2 bc 94 14 c7 3d dd 0c 3e bd
       -0.033870135 -0.027678471 0.09720722 -0.046398986
000160 f2 eb 81 3d 54 d5 23 be 50 a5 10 3e 68 d8 17 3d
       0.06343831 -0.15999347 0.14125562 0.037071615
000170 2a cb 06 be 1b 7f af bd 9d 18 7b 3d 57 ba 06 3e
       -0.13163438 -0.08569165 0.06130277 0.1315702
000180 30 b3 a8 bc 5b dc 3e be f3 52 c1 bd e0 3e 4c bc
       -0.020593256 -0.18638746 -0.094396494 -0.012466162
000190 6d ee 6d 3d 04 1d d9 ba 33 c0 bc bd aa e6 cc 3d
       0.05808871 -0.0016564433 -0.092163466 0.10004933
0001a0 5e 12 bc bb 53 76 15 3e 98 50 05 be f3 0f 1f be
       -0.005739494 0.14595918 -0.13019025 -0.15533428
0001b0 d6 fe c4 bd 46 81 09 be 57 f9 f2 bb 49 4f 6c 3d
       -0.096189186 -0.1342822 -0.0074149775 0.0576928
0001c0 5d e7 dd bd 42 51 7d bd f9 0c 5b 3d cf e8 ab 3c
       -0.10835145 -0.06184507 0.05347917 0.020985035
0001d0 8e 48 0d 3d 24 87 d8 bd d2 db 04 3e 1b 3f 94 3b
       0.03449302 -0.10572651 0.1297448 0.0045241243
0001e0 36 2d 1d be 14 04 d6 bd ca 91 57 bc 06 06 5a 3d
       -0.15349278 -0.104499966 -0.013157317 0.0532284
0001f0 ce 06 39 3d 45 3d 9c 3c f0 06 1f bb 40 a6 de bd
       0.045172505 0.019072184 -0.002426561 -0.108715534
000200 8c bd f6 3d fa 77 81 bd 81 40 a1 3d 0a 1d 82 3d
       0.12047872 -0.06321712 0.07873631 0.06353195
000210 15 1b de bd 9c b5 94 bd aa a7 56 bd 9f 3a ac ba
       -0.10845009 -0.07261202 -0.05240599 -0.0013140029
000220 8c 59 01 3d 72 98 06 be 7b 59 ba bd 44 1d 8c bd
       0.03157954 -0.13144091 -0.09099098 -0.068415195
000230 3e 29 cc 3d f8 94 45 bd 7c bd f3 3c 0a 31 58 bd
       0.09968804 -0.04823777 0.02975344 -0.052781142
000240 c6 b4 cd 3d 11 b2 a0 bd 54 f5 38 be bb b1 04 3d
       0.100442454 -0.078464635 -0.18062335 0.03239606
000250 25 90 e3 bd 8c 9a ba bc bc f6 2f be e1 b7 dd bd
       -0.11111478 -0.022778772 -0.17183965 -0.10826088
000260 db 07 ec bd 52 72 eb bd 3a 70 80 3c b1 b3 af bc
       -0.11524936 -0.11496414 0.015678514 -0.021447988
000270 38 73 2a bc 5b 13 bc bd 1c 8e 80 3c 37 8f 8a bd
       -0.010403447 -0.09183379 0.015692763 -0.06765597
000280 a2 14 c0 3c de 18 e3 bc 28 f6 6f 3c 1a 4b 4d bd
       0.023447338 -0.027721819 0.014646091 -0.05012045
000290 1c ad ef 3d d8 58 bc 3d 89 d2 04 bc fb 3f 07 be
       0.1170294 0.09196633 -0.008106836 -0.13208
0002a0 76 ee d0 3d f9 e0 44 bc 6e c0 2c be 55 b7 5f bd
       0.10201733 -0.012016528 -0.16870281 -0.0546182
0002b0 bf c1 ce 3d c0 92 af 3d 13 91 da 3d 3d 1e e9 bd
       0.10095548 0.08572912 0.10672202 -0.113827206
0002c0 f3 ba 21 3d 16 0c a2 bd 04 7d 90 bb 1d 23 aa 3d
       0.03948493 -0.079124615 -0.0044094343 0.083074786
0002d0 d3 0a a5 bc 74 18 c7 bd 39 08 e7 bd 28 6d 1c bd
       -0.020146763 -0.09721461 -0.11280865 -0.038190037
0002e0 0e bf 21 bd 2e ab 8c bd e3 eb 7d bc b7 62 3e 3d
       -0.039488845 -0.068685874 -0.015498134 0.04648086
0002f0 38 eb 8e bd 6b 80 1b bd b1 8a 87 3d de 0e c2 bd
       -0.06978458 -0.037964266 0.0661825 -0.09475492
000300 d8 04 5f bd b8 4c eb bb e3 fe 11 3d 9d 9b 35 3d
       -0.05444798 -0.0071807764 0.03564347 0.044337858
000310 96 1e 13 3d c4 9b a0 3c a4 85 ac bd 15 7a a8 bd
       0.03591784 0.019605525 -0.084239274 -0.0822641
000320 56 d1 06 3e 49 c4 40 3d 1c 1c b6 bd d4 db 88 bd
       0.13165793 0.047062192 -0.0889208 -0.06682554
000330 f5 35 82 3c e3 a3 3c be 7a 62 10 be f8 67 b4 bd
       0.01589487 -0.18421893 -0.14100066 -0.08808893
000340 e3 ef 56 3d 87 32 84 bd b0 4c bc 3c 33 65 8a 3d
       0.052474868 -0.0645495 0.022985786 0.067575835
000350 84 78 c3 bd a9 96 5a bd cc 1a 88 bd 81 72 1f 3d
       -0.09544471 -0.053366337 -0.06645736 0.03892756
000360 1e 4b a3 3b f2 8c 94 3d 07 32 87 bc 7b 24 73 3d
       0.00498332 0.07253446 -0.016503347 0.059360962
000370 ea d7 db bd f6 a2 aa bd 6c de 95 bd 0c 99 13 3d
       -0.10734542 -0.083318636 -0.07317814 0.03603463
000380 77 3f 38 be 7b 1c d1 3c cd 4c 80 bd 00 bb 41 be
       -0.1799296 0.025526276 -0.062646486 -0.18918991
000390 3c 48 02 bd 9a 0a 54 bd 46 f2 d1 bd ea ae da bc
       -0.03180717 -0.051767923 -0.10251288 -0.026694734
0003a0 39 18 48 bd fd 91 6a bc 60 44 46 bd 8d 24 12 3e
       -0.048851226 -0.014317033 -0.04840505 0.14271756
0003b0 fe d1 fe 3d f6 18 5e 3d 92 b8 5e bd cc c2 fb 3d
       0.124423966 0.054223023 -0.05437524 0.12293014
0003c0 73 13 67 3d b9 e0 19 be d2 e2 a6 3d 88 89 bc bd
       0.056415033 -0.15027131 0.08148731 -0.092059195
0003d0 7b cc b3 bd e3 d2 5b 3d 62 1c 99 3d 71 ba aa bc
       -0.08779236 0.053667914 0.07476117 -0.020840855
0003e0 c0 1a e0 3b ba 1e 8e 3d ad e6 6d bd 46 02 0f 3e
       0.0068391263 0.069394544 -0.058081318 0.13965711
0003f0 f9 4e 01 3e 45 28 ee 3d 09 fd 25 bd c0 ab 70 3d
       0.12627782 0.116287746 -0.040524516 0.058757544

fc3.bias f4 [10]
000000 ce d3 f0 3d 72 76 16 3d 7e ad e5 3d 3b a9 93 3d
       0.117591485 0.036734052 0.11214732 0.072100125
000010 66 0b 9c bd cb 3d 1a bd ef 34 eb 3c a0 ae 83 bc
       -0.076193616 -0.037656587 0.028711764 -0.016074479
000020 9f 27 98 bc 41 43 09 3d
       -0.01857358 0.033511404
