debugging/snapshot/model/model.pt (torch, 180527 bytes, 10 tensors)

conv1.weight f4 [6, 1, 5, 5]
000000 b2 18 53 3e 21 f4 6d 3e 27 8d 26 bc 59 aa 1b 3e
       0.2061489 0.23237659 -0.010165489 0.15201701
000010 e6 a1 44 be af bd 2e 3e 72 56 8e bc 02 58 42 3e
       -0.19202384 0.17064546 -0.017375205 0.18978885
000020 ed 2a 51 3e 37 28 55 be d0 59 80 3e bb 4f e7 3d
       0.20426531 -0.20816122 0.25068521 0.11294504
000030 2c c3 23 3e 3b a2 09 bd 40 e2 54 3d 38 b7 fb bc
       0.15992421 -0.03360198 0.05197358 -0.030727014
000040 60 a5 20 3e fd 1d 0c bd e1 b1 69 be cd a3 e8 bc
       0.15688086 -0.034208287 -0.22821762 -0.028398419
000050 3c c2 37 be b8 36 dc bd a8 19 47 be 40 e3 35 bd
       -0.17945188 -0.10752624 -0.19443381 -0.044406176
000060 2e 9d 83 be b4 9c 5a bd 1c 2a c4 ba 65 24 9a bd
       -0.25705856 -0.0533721 -0.0014966163 -0.07526473
000070 c3 dd 9a bd 7a ea ef be d1 22 4e 3e f0 57 1e be
       -0.07561829 -0.4685858 0.20130469 -0.15463233
000080 f3 e8 4b 3e b9 5d 32 bd 5d de bb be a4 9e e3 3d
       0.19913082 -0.043546412 -0.36693087 0.11114243
000090 7c 01 d3 3d 6b 3a ab 3e 7c 91 c6 3d b9 72 88 be
       0.103030175 0.33443007 0.09695718 -0.26650026
0000a0 fd 65 4b 3c 34 c4 8e 3a 5d fb 67 3e 00 92 7c 3e
       0.012414453 0.0010892213 0.22654481 0.2466507
0000b0 c1 17 9c bd 92 ab 29 be 30 c2 3c 3e f7 9e 0d 3e
       -0.07621718 -0.16569355 0.18433452 0.13830172
0000c0 95 ea 18 3e 77 c2 a3 be 72 79 5e be 5d 99 07 be
       0.14933236 -0.31984302 -0.21726015 -0.13242097
0000d0 75 2e 5f be d1 6a 12 3e c3 22 eb 3d dc b0 20 3e
       -0.21795066 0.1429856 0.1148124 0.15692466
0000e0 3b 1a ee 3d 31 d7 fc bc 4b ac d0 3d 55 68 0b be
       0.11626097 -0.03086433 0.10189112 -0.13614018
0000f0 76 a3 20 3e 3a 0b 24 3c 63 c1 d4 3d 16 ea 13 be
       0.15687355 0.010012442 0.10388448 -0.14444765
000100 e2 e6 8a bd 09 d8 d6 3d c8 4d 95 3e 19 71 e1 bd
       -0.06782319 0.10490424 0.29160905 -0.110079
000110 16 ff 7c be 10 24 b4 be 63 44 88 3e a2 ba eb 3d
       -0.24706683 -0.35183764 0.26614675 0.11510207
000120 11 69 26 3e 5a 83 a3 be 05 82 e2 be ea 52 c0 be
       0.16251017 -0.3193615 -0.44239822 -0.37563258
000130 ff 65 8e be 0d 95 54 3e a4 da 59 3e e6 55 6d 3e
       -0.27812192 0.20759983 0.21274811 0.23177299
000140 0b 9d b1 be 65 40 67 be e7 98 a6 3e cf 52 f4 3c
       -0.34690127 -0.22583158 0.3253853 0.029824642
000150 30 0c 69 3e 42 c0 2f be 0f b2 0f 3e 80 b8 9e 3d
       0.22758555 -0.17163184 0.14032768 0.07750034
000160 23 f2 f7 bc 89 32 0d 3c ca d1 a1 bd 96 8e 93 bb
       -0.030266827 0.008618006 -0.07901342 -0.0045030816
000170 bb 2d b9 3e 06 25 16 3e b8 4a b3 be 2a 84 49 be
       0.36167702 0.14662561 -0.35017943 -0.19679323
000180 98 57 a3 3e b5 98 1f 3e 19 a9 12 bd 33 d8 bd be
       0.31902766 0.15585597 -0.035805795 -0.3707901
000190 6d b2 20 be 78 85 aa bd 8e 67 27 be 73 d3 48 be
       -0.15693064 -0.083262384 -0.16348097 -0.19611911
0001a0 26 36 ba bc a8 96 1a be fe 80 81 be 04 a3 91 be
       -0.022730898 -0.15096533 -0.25293726 -0.28444684
0001b0 0f 86 a6 be ec 65 2d be 36 7c 33 3e fe 5c a7 bc
       -0.32524154 -0.16933411 0.17527851 -0.020430084
0001c0 b4 80 68 bd 97 71 a3 be de 35 4a be af f5 04 bd
       -0.056763366 -0.319226 -0.19747111 -0.032460865
0001d0 a0 28 61 3c 3b 4b 53 be 0f db 0f be d8 a3 28 be
       0.013742596 -0.20634167 -0.14048408 -0.16468751
0001e0 51 c1 32 3c 1e 57 c1 bd fa 96 c8 bd 74 b6 3e be
       0.010910348 -0.094404444 -0.097944215 -0.18624288
0001f0 5f 38 34 be 27 27 5c be d5 11 57 be 33 1e b6 be
       -0.17599629 -0.2149931 -0.21002896 -0.35569915
000200 59 f2 3b bb c5 68 e0 bd fc 22 c1 3d 49 5e 88 bd
       -0.0028678386 -0.10957483 0.09430501 -0.066586085
000210 42 79 97 be 19 21 85 3c ee c0 b3 bd 5f e5 9a bd
       -0.295847 0.016251134 -0.08777033 -0.0756328
000220 19 c8 25 be e6 ad 11 be c7 ee 6a 3d ab d4 e2 bc
       -0.16189612 -0.14226493 0.057356622 -0.027689299
000230 40 b5 e2 3d 04 95 fb bd 27 63 90 3e c9 3f cd bd
       0.11069727 -0.12284282 0.28200647 -0.10021932
000240 68 74 90 3c 17 e9 57 3d 64 d9 16 3e aa 96 8e 3e
       0.017633632 0.052712526 0.14731365 0.27849323
000250 29 2c 1b 3e bd 04 ee bd
       0.15153565 -0.116219975

conv1.bias f4 [6]
000000 ee 11 fd 3d 86 c4 28 bb a8 70 57 3d af d7 b4 bb
       0.123569354 -0.0025751903 0.05259767 -0.0055188756
000010 80 8f e0 bc ce 6e 8e be
       -0.027412176 -0.27818912

conv2.weight f4 [16, 6, 5, 5]
000000 fb d9 55 3e c4 66 83 3e b2 ee 4e 3d b5 37 3c be
       0.20883934 0.2566434 0.050520606 -0.18380626
000010 db 41 c5 bd cd d2 0a 3e be db 0f 3e b9 40 94 bd
       -0.096317016 0.13556977 0.14048669 -0.07238907
000020 5e 33 97 b9 ab 63 0a 3d e6 cd 22 3c 46 55 be 3d
       -0.00028839236 0.033786457 0.009936785 0.09293608
000030 13 fe 2a bd 86 7b 53 be a9 d0 22 be b1 59 dc 3a
       -0.04174621 -0.20652589 -0.1589991 0.0016811398
000040 4d 6b ab 3c 27 6a e3 bd 08 59 17 be 86 3d 71 bd
       0.020925188 -0.11104231 -0.14780056 -0.058896564
000050 6c 2f a4 bd 8f 87 83 3c df 47 0d bc 4b f3 d9 bd
       -0.080168575 0.01605585 -0.008623092 -0.106421076
000060 90 06 6b 3d d8 4e 16 3d 1a c5 a7 3e 53 07 6d 3e
       0.057379305 0.036696285 0.32767564 0.23147325
000070 b6 91 92 3e 9a df 25 3e be 8d 50 3d 85 52 2b bd
       0.28626794 0.16198578 0.050916426 -0.041826744
000080 60 4f e6 bd 84 2e 52 bc 38 76 b7 bb b8 89 4c 3d
       -0.11245608 -0.012828473 -0.0055988096 0.049936026
000090 68 39 10 3d 6e f0 12 3d 24 f0 25 bd be 65 21 3d
       0.035210997 0.035873823 -0.04051222 0.03940367
0000a0 9f 60 14 bd ff 82 88 bd ec ea 82 bd f4 fa b3 bc
       -0.036224958 -0.066656105 -0.06392464 -0.02197025
0000b0 47 ae b1 bc 53 35 d9 bd cb ac 5e 3c 2f 69 ff bc
       -0.021689547 -0.10605874 0.013591002 -0.031178085
0000c0 c4 1c 88 bd 17 75 22 bd b2 e3 d8 3c 39 6e 17 bd
       -0.066461116 -0.039662447 0.026475761 -0.03697035
0000d0 3b f0 a5 bd f0 57 1f 3d 9c f6 2d 3e e4 49 b1 3d
       -0.08102461 0.038902223 0.16988605 0.08656672
0000e0 f8 7c cb b9 00 36 b4 bd 6d a6 3a bd bb b1 26 3e
       -0.00038812286 -0.08799362 -0.045568872 0.16278736
0000f0 5d ff ff bb 02 62 f0 bc 08 96 8a bd b7 08 bc bd
       -0.007812424 -0.029343609 -0.067668974 -0.0918135
000100 a8 fc 74 bd 62 3b 6f bb 52 11 cf bd 3c b6 14 be
       -0.059811264 -0.00365039 -0.101107255 -0.14522642
000110 69 21 19 be 86 e4 89 3d 30 b3 a1 bd ff ac 45 bc
       -0.14954151 0.067330405 -0.078955054 -0.012065171
000120 33 94 37 be 49 2b 10 be 47 e1 ab bd 84 49 99 3e
       -0.17927627 -0.14079012 -0.083925776 0.299389
000130 d0 9a d9 bb 3e 3a 36 3e e4 2d c0 3d 30 58 ff 3d
       -0.0066407695 0.17795655 0.09383753 0.12467992
000140 1b 5e 94 bc d1 e0 30 3c 7c 3f c4 bc 32 5b c4 bd
       -0.01811128 0.010795788 -0.023956053 -0.095877066
000150 95 f8 0e be aa b1 b0 bd aa 15 05 be f5 72 3f be
       -0.13962014 -0.08627637 -0.12996545 -0.18696196
000160 b5 87 e1 bd 04 eb da bb b6 ec 36 be d1 9e 44 be
       -0.11012212 -0.006680848 -0.17863736 -0.19201209
000170 db 1f 96 be 56 bb 39 bd bd bb 89 bd 51 37 32 be
       -0.2932118 -0.045344673 -0.06725261 -0.17403914
000180 0e 09 1e be 67 90 9a be 8a c7 91 bd fc 49 f7 bd
       -0.15433142 -0.30188295 -0.07118137 -0.12074658
000190 6b dc fd 3c 07 55 4d bc 18 4d c8 3d ba 62 2f 3e
       0.030988893 -0.012532479 0.097803295 0.17127505
0001a0 c7 ab 35 3e 42 b1 b7 bd dc a9 95 3d f3 06 bf bc
       0.17741309 -0.08969356 0.07307789 -0.023318743
0001b0 df a9 37 3d 91 83 16 3e 5b 58 16 bd ce e1 c4 3c
       0.044839736 0.14698626 -0.036705356 0.024033453
0001c0 31 a7 c7 bb 39 3f 27 bd 97 f7 ad 3d 3c b8 00 be
       -0.006092929 -0.04083178 0.0849449 -0.1257028
0001d0 27 76 66 3d 52 d9 38 3d 9a 72 6e 3d 47 6a 52 bb
       0.056265023 0.045129128 0.05821476 -0.0032106803
0001e0 8f 22 f7 bd 74 42 85 bc d9 ac 34 3c 09 2b fa bd
       -0.120671384 -0.016267039 0.011027538 -0.122152396
0001f0 66 62 86 bc 9a 37 03 be a5 fe 82 3c 5d 44 95 3d
       -0.016404342 -0.12814179 0.015990565 0.0728843
000200 87 df 0f 3e 06 8f 33 3e 3b 30 fe bd 09 84 49 3d
       0.14050113 0.17535028 -0.12411543 0.049198184
000210 7b fa c4 3d 28 1f 7a 3b 1c 9f e0 3d dd 63 11 bd
       0.09618088 0.0038165543 0.10967848 -0.035495628
000220 aa 1b 51 bd 8f d1 e4 bc 42 7f 05 3e de 2b 36 3d
       -0.051051773 -0.027931957 0.13036826 0.04447543
000230 a0 1c f4 bd 46 af 4f bd fa 1a 12 bd fc 6f f0 3b
       -0.11919522 -0.050704263 -0.035670258 0.0073375683
000240 9b 89 16 3d 51 e7 94 bc 32 95 00 bc 09 25 00 bd
       0.036752325 -0.018176707 -0.007848071 -0.03128532
000250 fc a0 81 bd cd 5c 5f 3d f4 27 c0 bc f1 50 78 3c
       -0.063295335 0.05453186 -0.023456551 0.015156017
000260 73 0c b2 bd fc 7f 88 bd e5 dc 0f bc ed d6 35 3d
       -0.08693781 -0.06665036 -0.008780693 0.044394422
000270 f0 f9 53 bd d7 2c a1 bc 6a c2 e5 bc da 1b 98 bd
       -0.05175203 -0.019674702 -0.028046805 -0.07427187
000280 a4 78 10 3c f3 17 6f 3d a8 db 36 bd f9 85 5d bd
       0.0088178255 0.05837245 -0.044643074 -0.054082844
000290 7b 3d 10 be 59 c3 4d bd 6a c7 31 3c c0 da 6e bb
       -0.14085953 -0.050235126 0.010850767 -0.0036446303
0002a0 69 e7 b9 bd 0c 6a ba bd 36 f3 f1 bd f4 2d 11 be
       -0.09077341 -0.09102258 -0.11813967 -0.14177686
0002b0 24 a2 ce bd ed 64 0e bd 2e 4e 7c 3d 2e 68 60 3c
       -0.100895196 -0.03476422 0.061597995 0.013696713
0002c0 24 7a 0e bd b4 3c 09 bd 87 67 ca 3d b0 73 e6 bd
       -0.03478445 -0.033505157 0.098830275 -0.112525344
0002d0 9d 4f fa 3d 62 c2 61 3e fa a9 38 3d d9 d2 f7 3d
       0.12222216 0.22046807 0.045083977 0.12100763
0002e0 54 c2 67 3d f4 bf d7 3d 28 5a a3 bc 9a 26 bb bd
       0.05658181 0.10534659 -0.01994045 -0.09138222
0002f0 15 c8 cc bb e3 7d eb bb 31 55 67 3e 1a 39 a4 bc
       -0.0062494376 -0.0071866377 0.22591092 -0.02004676
000300 d1 a9 d5 bd e0 7c 09 3d 60 88 3c 3d be 83 5c 3e
       -0.104327805 0.033566356 0.046028495 0.2153463
000310 da 68 40 3d ea 98 2a 3c 9d 1f f0 bd 13 2b 9f bc
       0.046974994 0.010412434 -0.1172478 -0.01942972
000320 67 b4 a4 3d 00 38 38 3d c8 7c 8c 3c a3 5c 2b 3e
       0.080422215 0.04497528 0.017149344 0.16734557
000330 8c ce 96 3d 73 58 7e bd 32 9c 8e bd 82 55 1f 3d
       0.073636144 -0.06209607 -0.06963386 0.038899906
000340 8d 12 b8 3d 3d 7f e4 3d 13 8b 08 3d b7 5f 86 bd
       0.08987913 0.11157081 0.033335757 -0.06561225
000350 09 35 cc bd 13 42 96 3c d0 9e d8 3d 2c 40 eb 3d
       -0.09971053 0.018342054 0.10577166 0.11486849
000360 cb 85 94 bd fe 4c cc bc b1 3c 7d bd 9a 00 b5 bc
       -0.072520815 -0.024939056 -0.061825458 -0.022095013
000370 ae 73 e0 3d 97 a9 a0 3d 32 35 44 3d f6 6a 77 bd
       0.10959564 0.07844847 0.047902294 -0.06040474
000380 b6 ae bd 3d 49 6d fd bb 30 a7 c5 3c 3c 7b 00 3e
       0.09261839 -0.007733975 0.024127573 0.1254701
000390 20 a6 f1 3d 24 73 92 3d ca 32 39 bc c6 31 c9 bc
       0.11799264 0.071508676 -0.011303613 -0.024559867
0003a0 ad d2 05 3e 0d a6 1a 3e 37 9c b1 bc 5a 34 83 3d
       0.13068648 0.15102406 -0.021680934 0.0640647
0003b0 ee 78 07 3e 35 f4 b2 3d 05 5c 78 3d 3e 6e 62 be
       0.13229725 0.08737985 0.06063463 -0.22112367
0003c0 99 61 2a 3c 1d 78 1e 3d 8b df 62 3d 50 d1 88 bd
       0.010399246 0.038688768 0.05538897 -0.06680548
0003d0 2d f5 45 be 92 b4 44 3e 58 d8 67 bb e0 fe bc 3d
       -0.19331808 0.19209507 -0.0035376754 0.09228301
0003e0 c7 e4 43 bd 56 42 91 be 0f df 18 be bc 19 8c bd
       -0.0478256 -0.28370923 -0.1492884 -0.06840846
0003f0 32 72 10 bd eb af 4e 3d a0 24 ed 3c 50 7f 9c bd
       -0.035265155 0.050460737 0.028948128 -0.076414704

conv2.bias f4 [16]
000000 6d f6 3a 3d 08 07 9d 3d d4 ed a0 3d 8c 1b b6 bd
       0.045645166 0.07667357 0.07857862 -0.08891973
000010 8e 05 79 bd ca 49 a0 3d 97 77 8d bd df 08 28 bc
       -0.060796313 0.07826574 -0.069075756 -0.010256021
000020 4d 1b ec bd 5e 0e 0f 3e da db 05 bb cd c3 13 3e
       -0.11528645 0.13970324 -0.0020425231 0.14430161
000030 fb 32 76 bd cf 5b 46 3d b5 a8 2f 3d d9 59 71 bd
       -0.060107213 0.0484274 0.0428855 -0.058923576

fc1.weight f4 [120, 256]
000000 5d 33 8d 3c 7a 80 09 3e 49 4c 24 bd 3a 8a a7 3b
       0.017236406 0.13427916 -0.040111814 0.0051129134
000010 7d c5 91 3c 0c 96 d6 3c f9 74 c8 bc c0 42 0b 3d
       0.017794365 0.026194595 -0.02446984 0.033999205
000020 b7 15 d8 3a 8a a5 69 3d 5e 5c cf 3d 1c 35 dc bc
       0.0016485964 0.057042636 0.101250395 -0.026880793
000030 04 24 7b bd 1b 83 73 3c 4f 74 04 3d 67 8f 44 3c
       -0.061313644 0.014862801 0.032337483 0.01199708
000040 55 e3 a9 3d 6e 00 7a bd bd 11 09 bd 56 41 83 3d
       0.08295313 -0.061035566 -0.033464182 0.06408946
000050 cc 85 9d 3d 52 27 89 3d 3a 35 f5 3c 58 48 57 3c
       0.07691535 0.06696953 0.029932607 0.013139807
000060 df d8 b6 3d 2a ce a3 3d 63 ed 49 3d af 10 61 bc
       0.08928084 0.07998307 0.049298655 -0.013736888
000070 07 b3 21 3d 31 1b 24 bc 03 da 88 bb 83 d0 1d 3d
       0.039477374 -0.010016249 -0.0041763796 0.03852893
000080 7e 94 8a bc 19 d2 bb 3c 40 47 c3 bd a9 73 bc bc
       -0.01691651 0.02292733 -0.09535074 -0.02300437
000090 fa 97 d3 3c c7 66 af bc 1f 0c 2e 3c ce b2 dd bc
       0.025829304 -0.021411313 0.010623007 -0.0270628
0000a0 2a 62 30 3d 9a dc 3c bd e9 82 73 bd 40 86 31 bc
       0.043062367 -0.04610882 -0.059451018 -0.01083523
0000b0 6f 55 ff 3d 6c eb c0 3d 45 05 88 bb a6 82 41 be
       0.12467467 0.09419903 -0.004151019 -0.18897495
0000c0 8e 54 34 bc cb ea d9 bd b9 9b 45 bd b8 28 91 3d
       -0.0110064875 -0.10640486 -0.04824421 0.070878446
0000d0 f9 d8 4d bd af a1 0a bb c7 5d 66 bd 41 a3 88 3d
       -0.05025575 -0.00211535 -0.056241777 0.06671763
0000e0 ad 99 d6 3b d7 2d d4 bd ef 03 9d 3b 85 aa d0 3c
       0.0065490813 -0.10360306 0.0047917287 0.025471935
0000f0 14 f8 4e 3d 96 7b 39 bd 6c dd ac bd f3 a8 ce 3c
       0.050529554 -0.045283876 -0.0844067 0.025227046
000100 23 85 9a 3c 69 b0 96 bc 9a c1 83 3a cf e8 81 3d
       0.018862313 -0.018394666 0.0010052205 0.06343233
000110 69 31 8c bd 51 8b 1c bd 3d b6 65 3d 1b 09 2c 3d
       -0.06845362 -0.0382188 0.056082 0.04200087
000120 a4 86 78 bd 6b c3 82 bc 37 e7 36 bd cc 12 1a 3b
       -0.06067528 -0.015962323 -0.044654097 0.002350974
000130 64 d8 18 3d dc 70 35 bd 17 cd 47 bd 4b 41 6c 3d
       0.03731574 -0.044297084 -0.048779573 0.057679456
000140 62 5f eb 3d 3d b9 65 3c d2 cb c0 bd 3a fd 2d bd
       0.11492802 0.014021215 -0.09413876 -0.042477824
000150 83 a5 86 3d 9e 71 91 3c a2 de 40 bb a7 ad 64 bc
       0.065745376 0.017754372 -0.0029429574 -0.013957418
000160 ac ec 1b bd be a7 19 bd 7f 67 3c bd 9c 4a 42 bd
       -0.038067505 -0.037513487 -0.04599714 -0.047434434
000170 87 6d 34 bd 3e 3e b7 bd e6 5d 91 bd 53 92 6f 3d
       -0.044049766 -0.08947419 -0.07097988 0.058489155
000180 63 e3 ce bb 75 6d c9 bc 6e aa 97 bb 02 61 8e 3d
       -0.0063137277 -0.024588326 -0.004628471 0.069520965
000190 09 5a 7e bd 16 03 3c bd 06 4a 47 bd 83 91 79 3c
       -0.062097583 -0.04590138 -0.04865458 0.015232447
0001a0 f9 3c 29 bc 98 71 83 bd 9c fc 4c 3d 6f 56 fd bc
       -0.010329478 -0.06418151 0.050045595 -0.030925004
0001b0 2a be cc 3d 18 48 01 bc ce 54 17 bc 12 87 01 3d
       0.099972084 -0.007890724 -0.009236528 0.031622954
0001c0 a4 6b b2 3c 8f 0c 65 3d 20 38 e7 bd a4 ad 6c bb
       0.021779843 0.05592018 -0.11290002 -0.003611424
0001d0 45 09 27 bd d6 35 b1 bc 66 f6 58 3c 92 f9 9a 3d
       -0.040780324 -0.021632116 0.01324234 0.07567133
0001e0 66 0b 17 bb 9d 2c b4 bd 2b 38 13 3c ab 80 88 3b
       -0.0023047565 -0.08797572 0.008985559 0.004165729
0001f0 2f 03 83 3c 41 5e e2 bd e5 34 b0 3c 9c d2 9a 3d
       0.015992729 -0.11053134 0.021509597 0.07559702
000200 54 45 60 3d d6 e1 73 bd 59 06 54 bc 88 e3 81 3d
       0.054753616 -0.059541546 -0.0129409665 0.06342226
000210 c2 45 6c bd 56 73 43 bd b7 25 b2 3b da 05 27 3c
       -0.057683714 -0.047717415 0.005436625 0.010194266
000220 a4 08 07 bd 76 96 bc bd fd 36 7a bd 07 7a 57 bc
       -0.032967225 -0.09208386 -0.061087597 -0.013151652
000230 1d d1 57 bd 86 8d 3c ba ca fc 67 ba 74 57 d5 3b
       -0.05268966 -0.00071927195 -0.0008849619 0.0065106694
000240 04 3f 30 3e aa 9b b4 3d 36 37 9e 3c b4 be 25 3a
       0.17211539 0.08818753 0.019313436 0.00063226675
000250 dc cc 62 3d 11 e5 ca 3d 94 44 f9 3c 50 4f 69 bd
       0.05537115 0.09906972 0.030428208 -0.056960404
000260 14 07 84 3d a5 a6 56 3b 73 32 03 3c a2 57 b6 bd
       0.064466625 0.0032753136 0.0080076335 -0.089034334
000270 b4 2f 03 3e 8a 61 70 3d 19 98 07 ba c9 14 44 bd
       0.12811166 0.05868677 -0.00051725056 -0.047871385
000280 cd 39 44 bc 04 07 ae 3d 87 90 9d bd 89 17 86 bc
       -0.011976671 0.08497432 -0.07693582 -0.016368644
000290 5e 7d cf 3d 83 49 99 3d 86 0a 1c bc 9a c2 b5 bc
       0.10131334 0.074847244 -0.009523993 -0.02218752
0002a0 57 60 7b 3d c2 77 19 bd 79 8f 8f bd 54 56 cd 3c
       0.061371174 -0.037467726 -0.07009787 0.025065579
0002b0 33 98 e3 3d ec ba f2 3c bc 5c 17 be 0c 17 87 3d
       0.11113014 0.029630147 -0.14781469 0.06596193
0002c0 31 e1 4d 3d c0 d0 bc 3d 77 3e 13 bc b3 d3 b6 bb
       0.050263587 0.092195034 -0.008987061 -0.0055794357
0002d0 59 96 cc 3c 3a 0a 14 bd 6f 6f bf bb d6 ee dc bc
       0.024974035 -0.036142565 -0.0058421413 -0.026969355
0002e0 40 3d 86 3d d0 c5 be bd e5 91 ad ba 24 55 45 3d
       0.06554651 -0.093150735 -0.0013242332 0.0481769
0002f0 ac cb 49 3e 7b 9d 3a bc f1 d5 cd bd 6e 57 06 3e
       0.19706601 -0.011390085 -0.10050572 0.1311929
000300 11 c7 84 bc bb aa 10 be 58 16 8d bd 8a ae 4b bd
       -0.016208204 -0.14127629 -0.06889027 -0.049727
000310 53 90 72 bd a4 66 e9 bd f4 0a 87 bd 72 95 86 bd
       -0.05921967 -0.1139653 -0.06593886 -0.06571473
000320 97 30 73 bd 43 b0 ef bd 3c 17 0f bb a3 14 a9 bc
       -0.05937251 -0.11703541 -0.0021833917 -0.020639723
000330 19 0a a2 3c 47 4b 0d bc cd 6e d3 bd 85 68 41 be
       0.019780206 -0.008623905 -0.10323868 -0.18887527
000340 54 87 15 3d d1 8c ba bc 37 26 eb bc b2 2a 94 bc
       0.036506012 -0.022772225 -0.028704746 -0.018086765
000350 15 9e 49 bc fc ba 6a b8 18 e5 a4 bd 72 46 68 3d
       -0.012305756 -5.596409e-05 -0.08051509 0.056707807
000360 b5 8c 1a be 96 c1 60 bc bf 87 ef bc 2a d6 1e bd
       -0.15092738 -0.0137180295 -0.029239533 -0.03877846
000370 9e 9e 7b be 74 38 29 bc 7b 6d ef 3d e2 19 0b 3d
       -0.24572226 -0.010328401 0.116908036 0.03396023
000380 a4 bf 02 bc fd 98 13 3d 2a b8 8b 3a cf ca c0 3d
       -0.007980261 0.036034573 0.0010659744 0.09413683
000390 7e ae 5e 3c 28 ba 9c 3d 59 c9 48 3d 09 0f f5 3a
       0.013591407 0.07652694 0.049020145 0.0018696497
0003a0 9f a1 1d bd 86 e0 a0 bc c8 64 b4 3c f1 a2 d2 b9
       -0.038484212 -0.019638311 0.022020712 -0.00040175722
0003b0 f9 96 1b 3d 82 09 99 3c fd ed c9 3c 78 4b a6 bc
       0.037985776 0.018681291 0.024649614 -0.020299658
0003c0 2c 69 94 bd 9a a4 94 3c 29 92 03 bd af 2f b3 bc
       -0.072466224 0.018144894 -0.03212181 -0.021873323
0003d0 b8 67 1f 3c d1 72 cc bc 10 86 a5 bc 0d d1 09 3d
       0.009729318 -0.024957092 -0.020205528 0.033646632
0003e0 cd 68 83 3c ab b5 64 bd 6d 02 31 3d f5 49 2b 3d
       0.016041184 -0.055837315 0.043215204 0.041818578
0003f0 a5 2c 72 39 de 0d 25 3c 1f 12 88 3c 83 7d b9 bc
       0.0002309555 0.010074107 0.016610203 -0.022642856

fc1.bias f4 [120]
000000 a1 40 3f 3d 56 11 2a 3d 41 03 d5 3d 74 67 10 3d
       0.046692494 0.04152044 0.10401011 0.03525491
000010 61 0f a1 3d e6 ed ab 3d 04 c0 79 bd 59 a2 55 bd
       0.078642614 0.08394985 -0.060974136 -0.05215678
000020 d6 28 46 3d 95 ce 00 3e 03 ef ba bc 61 c8 8a 3d
       0.048378788 0.12578805 -0.022819048 0.067765005
000030 18 2b 34 3c 68 db d6 bc de 42 ee 3d 75 ff 51 3d
       0.0109966025 -0.026227668 0.11633848 0.051269013
000040 4a b0 9b bd 3d 51 aa 3d 78 65 bc 3d db d1 40 bc
       -0.07601984 0.08316276 0.09199041 -0.011768783
000050 4d 82 99 3c 63 1a d9 3b 1f 5c e9 3c 23 a7 fd 3c
       0.01873889 0.00662546 0.02848631 0.030963486
000060 a6 3a 2f 3c dd 4f 91 bc b0 f2 8a bd 45 65 82 3d
       0.010695135 -0.017738277 -0.0678457 0.06366972
000070 35 e1 5d bd 37 ee ae 3d 4a 64 20 bd 51 98 1f 3d
       -0.054169852 0.085415296 -0.039158143 0.03896362
000080 35 20 af 3c 4c f5 8b 3d aa b9 90 bb d8 9c 68 3d
       0.021377662 0.06833896 -0.004416664 0.056790203
000090 e1 aa 99 3d ee 9e 8b 3d e8 51 79 bd 18 ce 55 bd
       0.07503296 0.06817423 -0.060869128 -0.0521985
0000a0 f4 6a 31 3d 42 eb 68 bd 93 f9 c9 3c f0 4a c6 3c
       0.04331489 -0.056864984 0.02465514 0.024205655
0000b0 b5 7d 8b 3d 4b 02 a1 3d 3d 0f 94 bc a8 13 53 bd
       0.06811086 0.078617655 -0.018073672 -0.051532418
0000c0 10 be f8 bb 11 0e 23 bd 0a e0 04 bc 91 58 fa 3c
       -0.0075910166 -0.039808337 -0.008110056 0.03055981
0000d0 e8 d2 01 3c 6f 03 8d bd 03 f5 cd 3c fb 02 0a 3d
       0.007923819 -0.068854205 0.025141245 0.03369425
0000e0 13 ac 04 3d a0 00 92 bd 4a 07 2f bc 0d 2a 11 bd
       0.032390665 -0.071290255 -0.01068289 -0.035440493
0000f0 2e 6a ce 3c 78 40 ac 3d a9 dc df bc b0 e2 1f b9
       0.025197115 0.08410734 -0.027326899 -0.0001524787
000100 a6 74 1f bc 23 5d ee 3d 32 cf 54 bd 86 96 1e bd
       -0.009732401 0.11638858 -0.05195541 -0.03871777
000110 20 88 28 bd 25 d3 3f bd 46 93 e8 3c 54 59 7b bd
       -0.041145444 -0.046832222 0.028390538 -0.061364487
000120 5c 02 a5 3b 35 e5 a7 bc 93 2a 18 3d 9d 7e 3f 3d
       0.0050356817 -0.020495037 0.037149977 0.046751607
000130 6f 86 c8 3b d0 c6 dd bc 64 0f e3 3c ff 67 66 3d
       0.0061195414 -0.02707234 0.0277173 0.056251522
000140 6b 7c 76 bd af e9 a9 3c 07 29 65 3d 36 63 fb bc
       -0.060177248 0.020741312 0.05594733 -0.030686956
000150 38 34 8e 3c 9e 9f 6c bc 9d 85 82 3d d0 69 60 bd
       0.017358884 -0.014442353 0.06373141 -0.05478841
000160 d1 b2 ce ba 2a d2 db 3c d6 c9 d4 bd 54 cf 23 bd
       -0.0015769844 0.026833612 -0.1039006 -0.039992645
000170 1c d5 1a 3c df e9 3d 3b 33 8e 1d 3d 82 dc 3b bc
       0.009450223 0.002897851 0.03846569 -0.011466147
000180 23 6a 11 bd 96 4a a0 bd 7e 9e c0 3d 56 44 97 bc
       -0.03550161 -0.07826726 0.0940523 -0.018465202
000190 2f 32 b7 3d 6f cb 14 3d ae 98 08 bd 66 69 ea bb
       0.08945119 0.036326822 -0.03334873 -0.0071536778
0001a0 4e 85 8e bb f6 b2 b3 3d 48 ad 60 3d 3b 6d 4e bc
       -0.0043493873 0.087743685 0.054852754 -0.012599285
0001b0 23 b7 62 3d 71 23 8d 3d 32 95 3b bd 65 4f ca 3d
       0.055350434 0.068915255 -0.04579658 0.098784246
0001c0 a3 d6 79 bd 7c a2 59 3c ca 06 13 3d 25 13 b7 bc
       -0.06099571 0.013283368 0.035895146 -0.022347996
0001d0 d7 51 fc 3b 65 24 84 3d 07 0b 51 3d e6 d4 db bc
       0.0077001858 0.06452254 0.051035907 -0.026834916

fc2.weight f4 [84, 120]
000000 bf 4b d3 3d 81 0f 5e 3d 11 cb 3b bd 01 50 38 3d
       0.10317182 0.054214004 -0.045847956 0.044998173
000010 0f 0a b3 39 03 ee 53 3c bc ab ae bd f8 74 d6 bd
       0.00034149035 0.012935164 -0.085288495 -0.10471529
000020 4f 67 7a 3d df 02 02 3e 8b a1 4e bd bd 57 9b bd
       0.06113368 0.12696408 -0.050447028 -0.07585094
000030 67 57 91 bc b6 75 a9 bd 6f 54 26 bd ec a4 d4 3d
       -0.017741872 -0.08274405 -0.040607866 0.10383019
000040 f4 49 08 3d 61 90 e1 bd 4c b8 d2 bd a9 0b c5 3c
       0.033273652 -0.11013866 -0.10289058 0.024053412
000050 35 6e 81 bd 48 cc a0 bd cc 19 ce 3b 34 da fb bc
       -0.063198484 -0.078514636 0.0062896963 -0.030743696
000060 b6 af 87 bd e9 36 44 bd 1b 97 f4 3d 71 89 64 3d
       -0.06625311 -0.04790393 0.119428836 0.055795137
000070 48 1d 96 39 22 07 8c bd 2c 35 5f 3d ac 0f 98 3a
       0.00028632046 -0.06837298 0.054494068 0.001160135
000080 8e 26 dd 3d 99 bc 08 bd 1c 25 db 3b 90 83 a4 3d
       0.10798369 -0.033382986 0.0066877734 0.08032906
000090 3f e1 ac bc ac 8d 86 3d 8d bc 17 3d 54 3d 1e 3d
       -0.0211035 0.065699905 0.03704505 0.038632706
0000a0 a4 bc d1 3b a2 f9 63 bd 66 74 75 bd 72 c2 ca 3d
       0.0064006615 -0.05565799 -0.05992546 0.09900369
0000b0 5d 87 78 bd 68 a3 87 bd e9 99 7f bc b7 3d 3f 3c
       -0.060675967 -0.06622964 -0.01560066 0.011672429
0000c0 c3 85 f8 bd d5 96 2c 3d 05 b4 99 bb ee 38 aa 3b
       -0.12134888 0.042136032 -0.0046906495 0.005194775
0000d0 4f 20 c0 bc d1 bb d6 3d 48 a7 b2 3b 3d 91 d5 3d
       -0.023452906 0.10485042 0.0054520704 0.10428093
0000e0 88 76 ce 3d 94 6b 9a 3d e6 60 60 3d 6e 25 8c 3d
       0.10081202 0.0754005 0.05477991 0.06843077
0000f0 ce 76 3a bd 7f 80 ff bd 66 59 a3 3b 3f 82 67 bd
       -0.045523457 -0.124756806 0.0049850224 -0.056520697
000100 fe cb 88 bc ca 4b 81 bd 3b db 86 3c da 17 a2 3d
       -0.016698834 -0.06313284 0.01646196 0.079147056
000110 c8 7b cd bc 57 90 2e 3d 9d c7 b0 3d 4b 01 2a 3d
       -0.025083438 0.042618122 0.08631823 0.04150514
000120 0b d7 af bd 56 05 00 3e 71 32 a2 3d 56 cb 48 bd
       -0.08585938 0.12502035 0.07919777 -0.04902204
000130 98 8e bc 3d 13 04 b1 3d 08 9c f7 bd cf d2 9a bd
       0.09206885 0.08643355 -0.120903075 -0.0755974
000140 10 a9 69 3d 46 cc bf 3d 79 2d 8a 3c 44 7e 15 3e
       0.057045996 0.09365134 0.016867386 0.14598948
000150 9b 12 2f 3d 8d b5 b0 3c 7d cf 18 bb 52 98 17 3d
       0.042742353 0.021570945 -0.0023317032 0.0370105
000160 bd e4 a0 3d 09 16 51 3d b7 32 21 3d 46 7f a2 bb
       0.07856128 0.051046405 0.039355006 -0.00495902
000170 56 34 88 3d a7 1b 33 3d 8c 36 59 bd 8f 14 65 bd
       0.06650607 0.043727543 -0.053030536 -0.05592781
000180 b0 d2 6a 3d bc 25 72 ba ee ec a5 3d 32 0b 76 bd
       0.057329834 -0.000923719 0.081018314 -0.06006927
000190 19 a3 05 bd f3 e9 bb 3d 5f a3 5a bd 4a 55 f1 3c
       -0.032626245 0.09175482 -0.05337846 0.029459614
0001a0 71 c9 15 3e af 12 fb 3d cf fb 0a 3d 5d ba 32 bd
       0.14627625 0.12259423 0.03393155 -0.04363476
0001b0 b9 42 b0 3d f0 24 db 3d 9c 33 6a bd ed 55 dc 3b
       0.08606476 0.10700405 -0.057178125 0.0067241103
0001c0 c8 e2 3b bd 84 6e 7b ba 57 c6 f4 bc 14 6e 16 3d
       -0.045870572 -0.0009591358 -0.029879732 0.036726072
0001d0 8e d3 ac 3c 0a e6 ae bd f2 be 9b bd 17 e8 09 3d
       0.02109697 -0.0853997 -0.07604779 0.033668604
0001e0 c3 b7 09 be 32 f7 86 3c 89 8b da 3d e3 da a8 bd
       -0.13449006 0.016475294 0.106711455 -0.08244874
0001f0 48 82 d9 bc 32 40 0b 3d 81 5b 53 3d cb 86 05 3c
       -0.02655138 0.03399677 0.051600937 0.008149813
000200 eb d2 d3 bc ff 54 3f 3c 80 bc 9f bd 57 d4 eb 3c
       -0.02585741 0.0116779795 -0.077996254 0.028787775
000210 bd 61 c6 bd 2d 4f 25 bd a1 2d 8d bd 0b 84 3c 3d
       -0.09686611 -0.04035871 -0.06893469 0.046024363
000220 e9 fe 4c 3c b3 b4 d0 bc e6 a9 b9 3d 8a 0f 91 bc
       0.012511947 -0.02547679 0.09065609 -0.017707605
000230 3a 7f 90 3d 99 2a 30 3c d4 1c 5c bd db 33 5f 3e
       0.070555165 0.010752344 -0.05373843 0.21797125
000240 a3 bb 9d 3a a2 3b ae 3d 94 4f e3 bc 83 8e 04 bd
       0.001203407 0.08507468 -0.027747907 -0.032362472
000250 75 35 4d 3b 02 57 57 be 46 8d ae 3a c6 1c 7c bd
       0.003131238 -0.21029285 0.0013317249 -0.061550878
000260 1d a2 65 3d e7 4e 5d 3d 98 97 63 3d 13 16 84 bd
       0.056062806 0.054030325 0.055564493 -0.06449523
000270 f0 99 0e be 24 30 13 bd 95 c6 0c 3d 45 3f df 3d
       -0.1392591 -0.035934582 0.03436907 0.109007396
000280 1c 1c bc 3d 95 70 5c 3d 77 d5 3b 3e c1 1d fe bc
       0.09185049 0.053818304 0.18343149 -0.031020047
000290 e2 38 02 3e 61 46 9c bd bf dc 30 3d 35 2b 90 3c
       0.12717012 -0.07630611 0.04317927 0.017598728
0002a0 53 4f de bd 9d e4 79 3d 2e f9 87 3d 27 55 47 bd
       -0.10854974 0.06100904 0.06639324 -0.048665192
0002b0 7e 2c 49 bd ef d3 b3 3d ae 3f b8 3c 40 3f ea ba
       -0.049114697 0.087806575 0.022491302 -0.0017871633
0002c0 a6 aa 0c be 69 25 07 3d 7c 49 a3 3d 8b 52 b3 3d
       -0.13736972 0.03299466 0.079730004 0.08755978
0002d0 b5 95 78 bc 50 18 6c bc 1d 6b 77 3d 9d 65 2b bb
       -0.015172412 -0.014410093 0.060404886 -0.0026153096
0002e0 79 d5 4a 3d c6 82 a2 bd 1f 5d 99 3d 9e 48 ef 3d
       0.04951999 -0.07935099 0.074884646 0.116837725
0002f0 19 cf 8e bc 8e b2 14 3d 63 39 22 bc cb 96 60 3d
       -0.017432736 0.036303096 -0.009901377 0.054831307
000300 82 31 ee 3d 3a b8 0b 3d d1 1c a7 3c ba 7f db bd
       0.116305366 0.03411124 0.020399483 -0.10717721
000310 c6 f0 2e 3d ea 10 a1 bd 18 87 3e bd 05 6b 10 be
       0.04271009 -0.07864554 -0.046515554 -0.14103325
000320 4d bb 3d bc 3b f1 ff 3c cf f1 87 bd 97 d1 50 3d
       -0.0115803005 0.031242957 -0.06637918 0.05098113
000330 ab 4a fe bd 10 9b 07 bd 8b e4 57 bd e7 eb 11 3e
       -0.124165855 -0.033106863 -0.05270819 0.14250146
000340 94 79 37 3c 72 69 0a 3d 46 41 cc 3d 7e a4 90 3d
       0.01119842 0.033791967 0.099733874 0.070626244
000350 c4 5f 44 3d d7 3b ae 3d 22 34 52 bc e8 f4 96 3d
       0.04794289 0.08507507 -0.012829812 0.07370931
000360 2f cb d7 3c 10 c6 68 3d c7 3c bf bd 58 39 77 bd
       0.026342003 0.056829512 -0.09337764 -0.06035742
000370 0b 76 d9 bd 92 2b fa 3d 90 6b 97 3d 0a ce 51 3d
       -0.10618218 0.12215342 0.07393563 0.051221885
000380 76 61 1f 3e 55 81 ff 3c e9 ea 60 bd b6 2a d7 3d
       0.15564522 0.0311896 -0.054911528 0.10506193
000390 25 c8 62 3d 6d 8d 2f 3d ad 02 8a bd 40 f2 8d 3d
       0.055366654 0.042859484 -0.067387916 0.06930971
0003a0 94 be 7b bd 1a 89 19 3d e6 0d 6f 3d aa d3 46 bd
       -0.061461046 0.037484266 0.058362864 -0.048541702
0003b0 38 fa dd 3d 2d 1b 14 3d 0b b4 b6 bd 36 b7 9a bd
       0.10838741 0.03615873 -0.08921059 -0.07554476
0003c0 f0 34 1a bd 6a 21 e5 bc 3c 17 c5 bd 46 3a e0 3d
       -0.03764814 -0.027970035 -0.09623572 0.10948615
0003d0 76 0d 79 bd 6d 8d b8 bb bf 1a bd 3d cc a5 06 3c
       -0.060803853 -0.0056320936 0.09233617 0.00821824
0003e0 c1 fd 65 bc 28 9a fb bd 49 9d 98 3c dd 0c 8d bd
       -0.01403755 -0.12285262 0.018629687 -0.06887219
0003f0 f5 01 a7 3d 0b 2d b5 bd 5c ce 98 3d 98 c3 96 bd
       0.0815467 -0.08846482 0.07461235 -0.07361525

fc2.bias f4 [84]
000000 82 84 4c 3d 58 b1 28 3d 90 4b 7f 3d 9a e3 35 3d
       0.049931057 0.041184753 0.06232792 0.04440651
000010 bb 99 59 3d 06 54 2e 3d da dc 81 3d 4e 2b c2 bd
       0.053125124 0.0425606 0.06340952 -0.09480916
000020 e0 cc ce 3c e5 13 80 3d ba 2a e3 ba 33 fa fe 3c
       0.025244176 0.062537946 -0.0017331459 0.031125164
000030 82 de 4a bd c8 11 ce 3d 5b c7 b7 bd cf ab 10 3d
       -0.049528606 0.10061985 -0.08973571 0.0353201
000040 22 c3 99 bd 08 ff dd bc 57 d2 d9 ba 8a 83 61 bd
       -0.07507922 -0.027099147 -0.0016618472 -0.055057086
000050 c1 73 ae 3d ca 68 5b 3d d4 a7 a8 3d 70 eb c0 bc
       0.08518172 0.05356673 0.08235136 -0.023549765
000060 8d f9 84 bd 0f 61 92 3d ce 72 6e 38 a3 9e 90 bc
       -0.064929105 0.07147419 5.6850542e-05 -0.017653769
000070 11 91 4d 3d 48 c5 5b bd 90 f3 51 bd 0f f1 00 be
       0.050187174 -0.05365494 -0.05125767 -0.12591957
000080 93 c4 86 3d 53 18 06 bc 4a 9a 29 3d 91 ea d4 3c
       0.06580462 -0.00818451 0.041406907 0.025990756
000090 c6 85 b1 3d 5e 19 81 bd 2d 07 ee 3c 32 5d f9 3c
       0.086680934 -0.063036665 0.029056156 0.030439947
0000a0 bc cc 4a bd 0c 25 cf bd 2c 17 4a bd 43 36 97 3b
       -0.049511656 -0.10114488 -0.049338505 0.004614623
0000b0 47 a1 28 bc 75 0b 9d bd 5e 4c b9 bc 64 ac 89 bd
       -0.010292358 -0.07668201 -0.022619423 -0.06722334
0000c0 4f e7 44 bd 82 2a 82 3d 95 10 0f bd f8 41 7b 3d
       -0.048072156 0.06355764 -0.034927923 0.06134221
0000d0 d5 4c 7f bd b7 82 78 3c d5 a4 97 3d 76 c0 5b bd
       -0.062329132 0.015167884 0.07404486 -0.053650342
0000e0 dc 6b 9b bd 06 f6 9c bd f6 c9 7b bd 53 4f b6 bc
       -0.07588932 -0.07664113 -0.0614719 -0.022254622
0000f0 42 8c d8 3d 58 c3 2d bc 45 4e 70 3d cd 40 40 3d
       0.10573627 -0.010605656 0.058668394 0.0469368
000100 10 93 83 3d ac c8 85 3c da 82 28 3d dc 10 19 bd
       0.06424534 0.01633104 0.041140415 -0.037369594
000110 42 49 d0 3d bc 21 65 bd ab df ca bd 30 60 07 3e
       0.10170223 -0.055940375 -0.099059425 0.13220286
000120 1c 0f 40 bd 1a 2a bd 3b 12 bf d3 bd c6 ed a2 bd
       -0.04688941 0.005772841 -0.10339178 -0.07955508
000130 ee 64 15 3d 60 89 67 3d 5c 99 9c 3d 18 d1 8f bd
       0.036473207 0.056527495 0.076464385 -0.07022303
000140 17 59 08 bd 65 98 c7 3a ec 88 a5 3d 9e 68 09 3e
       -0.033288088 0.0015227912 0.080827564 0.13418815

fc3.weight f4 [10, 84]
000000 c1 ed 06 be af 60 83 bd a2 4a c1 bd 90 5c 1d bd
       -0.13176633 -0.06414925 -0.09438063 -0.038418353
000010 a4 d1 b6 3c 0c 4a 89 bd 6e 8f c0 bd ba 6e 5a 3c
       0.022316761 -0.067035764 -0.09402357 0.013332063
000020 14 b9 20 be 1a 6b 11 be 33 28 da bd 7e 9a b2 bc
       -0.15695602 -0.14201012 -0.10652199 -0.021802183
000030 de 5d 1f bd 98 03 9b 3d 39 29 9f 3d 89 c5 84 3d
       -0.038907878 0.07569045 0.077715345 0.06482989
000040 7d f9 2a bd 87 67 5a 3d 05 e8 cb bc 6c 35 58 bb
       -0.041741837 0.053321388 -0.024890909 -0.0032990826
000050 47 07 fe 3c 68 51 18 bd cd ea 18 3e d7 49 8e bd
       0.03100933 -0.03718701 0.1493332 -0.069476776
000060 aa c9 83 bd b3 70 a9 bc af bd 3a be 85 51 b6 3c
       -0.06434949 -0.020683622 -0.18236421 0.022255668
000070 27 65 e3 bd 49 e0 8d 3d fc 6a 04 be aa fa 5a bd
       -0.11103278 0.069275446 -0.12931436 -0.053461708
000080 7d 0a 58 bd 4d f6 71 bd 28 a0 19 3c f8 93 11 be
       -0.052744377 -0.05907278 0.009376563 -0.14216602
000090 eb be 82 3d 10 42 a2 be 8d e1 94 bd 5f ce 80 bc
       0.06384071 -0.31691027 -0.07269583 -0.015723405
0000a0 4d 1c 5a 3d 32 64 d2 bd 22 eb 56 bd c1 c9 b0 3d
       0.053249646 -0.10273017 -0.052470334 0.086322315
0000b0 e7 a8 b4 3d b1 0b 77 3d b7 4a 5b bd af 77 99 bd
       0.08821278 0.060313884 -0.05353805 -0.07493531
0000c0 a0 62 b8 bd e8 32 9e bd 32 9c cb bd 20 02 42 3d
       -0.09003186 -0.07724553 -0.09941901 0.047365308
0000d0 2f 0d e3 3c de 7c a9 3c 44 ec 4c bc 7c 48 62 bd
       0.027716247 0.020689424 -0.012507502 -0.055244908
0000e0 79 89 9a 3d 64 6b 24 3d 05 d7 87 bd 95 49 30 3e
       0.07545752 0.04014148 -0.066328086 0.1721557
0000f0 ca 10 a3 3d 05 fd d0 3c ce c8 39 3d ac c1 c0 bd
       0.07962187 0.025511274 0.045357518 -0.0941194
000100 8e 3e b5 3d a8 03 62 bd 51 65 3c 3d ea 8f b5 3d
       0.08849822 -0.055179268 0.04599506 0.0886534
000110 b9 87 b3 bc 18 1d c4 bd 3a ec 37 bd 98 c7 a6 bc
       -0.021915304 -0.09575862 -0.044903018 -0.020358846
000120 bb 1d 99 3d 98 0f f3 bc bd 0f 44 bd 8b a6 0c 3e
       0.07476374 -0.029670522 -0.04786657 0.13735406
000130 02 b9 10 3e b4 6a 1b bd 27 5d 8f bd 13 46 89 bb
       0.14133075 -0.037943557 -0.07000189 -0.0041892617
000140 c6 8f 94 3d 35 27 34 3d af 9f fc 3d d3 4d 17 bd
       0.07253985 0.043982703 0.12335145 -0.036939453
000150 0d 28 48 bd 78 f6 02 bd 95 d3 c5 3d 1e 52 30 bd
       -0.04886632 -0.031973332 0.09659497 -0.043047063
000160 f2 06 b8 3d e4 fa 38 be dd a5 11 3e c4 94 15 3d
       0.089857 -0.18064457 0.14223428 0.036518827
000170 bd f7 14 be df 1a cc bd 1e 01 7b 3d a9 7d 07 3e
       -0.1454763 -0.09966063 0.061280362 0.1323153
000180 30 b3 a8 bc 8d 9f 4e be 86 59 c1 bd 94 6f 9f 3d
       -0.020593256 -0.20178051 -0.09440903 0.07784954
000190 25 0f fe 3c 54 ea ff bc 65 3a d3 bd e0 c3 cb 3d
       0.03101308 -0.031239666 -0.10313872 0.099494696
0001a0 e5 3e 9b bc a6 77 12 3e 2f 1a 0d be e5 b6 1c be
       -0.018950889 0.14303455 -0.1377952 -0.15304144
0001b0 d6 fe c4 bd 42 d7 f5 bd 9d 31 0a bd 12 a4 51 3d
       -0.096189186 -0.12003948 -0.03373872 0.05118186
0001c0 01 d8 0a be 6f b6 1b bd 0c 5d 3e 3d 52 f7 44 bd
       -0.13558961 -0.03801578 0.046475455 -0.048087426
0001d0 f6 6c d8 3c d5 d1 e6 bd 26 e2 03 3e dc ef fa 3a
       0.026419144 -0.11270491 0.12879238 0.001914497
0001e0 87 00 0d be 43 6f 65 be 5f af 4e bc f1 72 59 3d
       -0.13769732 -0.22405724 -0.012615054 0.053088132
0001f0 62 68 ab 3d f6 08 98 3c f0 a3 88 bb da 28 fa bd
       0.08369519 0.01855896 -0.0041699335 -0.12214823
000200 a7 f7 fa 3d 45 7b 88 bd 2b f6 ae 3d 0a 1d 82 3d
       0.12254267 -0.06664137 0.085430466 0.06353195
000210 13 1c de bd 12 e2 bd bd 67 cb 65 bd b1 96 b8 bc
       -0.108451985 -0.09271635 -0.056102183 -0.022532793
000220 8c 59 01 3d a4 02 0c be 49 b7 e2 bd 44 1d 8c bd
       0.03157954 -0.13672882 -0.11070115 -0.068415195
000230 e9 ce cf 3d f2 c1 a4 bd 7c bd f3 3c a9 8f 24 bd
       0.10146887 -0.08044805 0.02975344 -0.040176068
000240 eb 3f d8 3d ab fc b2 bd 49 57 50 be 43 dc a8 3c
       0.105590664 -0.08739599 -0.20345797 0.020612841
000250 95 76 f0 bd 4c da ba bc f6 d1 3e be 41 2d e2 bd
       -0.11741368 -0.02280917 -0.18634781 -0.11043788
000260 8b da 2c be 52 72 eb bd 3a 70 80 3c d3 3f 9a bc
       -0.16880243 -0.11496414 0.015678514 -0.018829262
000270 c9 15 06 bc 4a 4b fc bd 1c 8e 80 3c 46 3f ba bd
       -0.008183905 -0.12319048 0.015692763 -0.090941
000280 af 3d 03 3d 16 1c 86 bc 65 84 6e 3c 1a 4b 4d bd
       0.032041248 -0.016370814 0.0145579325 -0.05012045
000290 dc 89 f7 3d 93 5c fd 3d 5b b4 68 bc fd 03 0c be
       0.120868415 0.12371173 -0.014203156 -0.13673396
0002a0 5d 42 ca 3d 1b d1 3f bd ad 4d 31 be 93 ab 84 bd
       0.09875939 -0.046830278 -0.17314787 -0.06478038
0002b0 49 54 d8 3d 37 29 b9 3d 59 ee e0 3d 33 5f ed bd
       0.10562951 0.09041064 0.10982961 -0.115904234
0002c0 68 68 3b 3d f3 b5 99 bd c9 e6 22 bb 3b 05 b8 3d
       0.045753866 -0.07505407 -0.0024856797 0.08985373
0002d0 d3 0a a5 bc 47 00 cf bd bd be e8 bd 2c b7 7a bd
       -0.020146763 -0.10107475 -0.113645054 -0.061209843
0002e0 36 b8 33 bd 75 a8 18 be 47 7e 80 bc fd c3 51 3d
       -0.04387685 -0.14908011 -0.015685214 0.0512123
0002f0 dc 9f 8e bd c2 88 32 bd f2 a5 90 3d 46 4b e3 bd
       -0.069640845 -0.043587454 0.070629016 -0.11098342
000300 d8 04 5f bd d8 06 3a b8 ec 82 3c 3d e8 0d 00 3d
       -0.05444798 -4.435223e-05 0.046023294 0.031263262
000310 6b b8 fd 3c fb 11 72 3c 3c 41 c6 bd 33 13 79 bd
       0.030971726 0.014774795 -0.09680411 -0.060809325
000320 50 cd 0a 3e fd 48 3e 3d ee 12 be bd 56 5c 09 bd
       0.13554883 0.046456326 -0.09280954 -0.033535324
000330 7d 56 71 3c 97 e9 07 bf 08 94 28 be 5e 20 e0 bd
       0.014730093 -0.53090805 -0.1646272 -0.109436736
000340 fd f5 f9 3d a5 10 bd bd 3e 90 3f 3d 42 dc 8f 3d
       0.12205122 -0.0923169 0.04676842 0.07024433
000350 dc 43 c1 bd 0f 34 82 bd ef 2f 9b bd 81 72 1f 3d
       -0.09436771 -0.06357586 -0.07577502 0.03892756
000360 77 45 9d 3b a3 30 9f 3d e6 06 16 bd 9c 96 81 3d
       0.0047995406 0.077729486 -0.036627673 0.063275546
000370 ea d7 db bd 80 b5 df bd 3f b6 b3 bd 0c 99 13 3d
       -0.10734542 -0.1092329 -0.08774995 0.03603463
000380 1c 33 45 be 2d 0c af bc cd 4c 80 bd 36 cc 67 be
       -0.19257778 -0.02136811 -0.062646486 -0.22636494
000390 9c 45 13 bd f2 c4 5c bd de 6f db bd f0 b9 67 ba
       -0.035955057 -0.05389876 -0.10714696 -0.00088396575
0003a0 56 87 33 bd db 8c 56 bc ac ff 5c bd 20 17 1d 3e
       -0.04383024 -0.013095106 -0.053954765 0.15340853
0003b0 ab b9 03 3e f6 18 5e 3d 92 b8 5e bd 5b 2b 09 3e
       0.12863795 0.054223023 -0.05437524 0.13395445
0003c0 a7 f3 95 3d b9 ad 35 be d2 e2 a6 3d a3 81 d5 bd
       0.073218636 -0.17742051 0.08148731 -0.10425117
0003d0 7c 36 b8 bd 8b b3 77 3d 6d 6e 92 3d 71 ba aa bc
       -0.08994767 0.06047396 0.07149968 -0.020840855
0003e0 51 de 52 3c 78 59 b0 3d 58 64 70 bd 55 0f 1d 3e
       0.012870387 0.08610815 -0.058689445 0.1533788
0003f0 36 19 09 3e 9f 46 01 3e 75 bd 3d bd 59 6d 8a 3d
       0.13388523 0.12624596 -0.04632326 0.06759138

fc3.bias f4 [10]
000000 32 c7 f6 3d 2f a3 b0 3c d1 fc 02 3e 8c c5 7c 3d
       0.12049712 0.021562187 0.12791754 0.061711833
000010 96 35 b1 bd e7 59 3f bd 3f 69 ea 3c 90 71 2b bc
       -0.08652799 -0.046716597 0.028614638 -0.010464087
000020 7a 45 19 3c de 28 ad 3c
       0.009354943 0.021137651
